2D_vision/scripts/agent_weights.pth (torch, 557007 bytes, 8 tensors)

fc1.weight f4 [256, 22]
00000000: 4ebb babd 774e a7be 2e77 14bd 1020 7d3e
00000010: 3e7d 7cbd 6cca 43be 62a4 ea3d 2073 033e
00000020: 715e 123f 03ad dcbe 43ac e73c 4bcc a4bd
00000030: e70e f1bc ed03 67be 973e 6a3e 8222 a2bd
00000040: d629 253d 081b 9e3c 4ae4 263d 1eec b6bd
00000050: 5fde 75be 098c 1abe 38ab 01be dd8e 10be
00000060: b2c6 d6bd cf35 58bd 63f9 83bd 9d6a 323d
00000070: 5d8a 72bd 4621 29be 072c 313c 9d1a 02bf
00000080: ae3b 96bb 5d28 913c 183a c3bc 44f1 bb3e
00000090: 611e 163e 651e e7bd 7e8c 803d 0d05 9a3c
000000a0: a3c4 d33c ce6e 703d bf28 843e 52d8 57be
000000b0: 731d a4bc e959 d93e 36bb 183a 3ca2 9f3c
000000c0: 45c9 86bb 4f43 df3c 0ec9 1e3e 8d9f dfbe
000000d0: 48e6 30be 3c5f 8abe e0eb 5b3d 4887 fc3c
000000e0: 9ea1 fdbb b315 dbbd dc68 153d 26fd febd
000000f0: c1b5 823d d40d 8d3c 2b5a de3c 7e97 863e
00000100: fe5e adbe 17a5 90bd 29e5 6e3e c516 4e3e
00000110: d02d 0d3e 025a a03b 0c12 b1bd 7bc0 e3bb
00000120: 166d d9bc 86a9 0f3d 767b 753d db1a 95be
00000130: 7666 b23d 3374 e53d a496 453e f099 b1bb
00000140: 9692 a63d 8845 bcbc 0b93 32be 80ee bbbc
00000150: e22f 70bd 5e28 033e d60d 963d 6977 043f
00000160: 2510 87be 62cc 963d 6741 61bc f99f 123c
00000170: 5c3c 0a3d 47d6 da3d acd4 c23c 9f94 423d
00000180: bf56 0e3e 3538 00bf 5d8b 1dbc 4194 ddbd
00000190: 3a6d a8bd a16e 6ebd ee83 30bd 2997 bdbd
000001a0: 0849 eebc fa9e 7d3c fb8a 88bb 682d e03e
000001b0: daeb a1be 60fc c7be 76d8 64be 96bb 663d
000001c0: 116a a53d a873 143d ecf5 90bc 7830 0d3d
000001d0: 4e4f 03be 0c6f 2dbc c85f bd3c 8658 4bbe
000001e0: 5907 ed3c a207 3a3a d912 4e3d bba2 f63c
000001f0: 9ba1 413d 6938 1abd adfa 8c3b 38f7 313c
00000200: 9bca 75bb 3d37 bbbe 7155 5bbe cdb6 8a3e
00000210: bdb3 703e 9edd f0be 354b 5ebe 6299 5dbd
00000220: 25c7 48bd 95c9 23bd c1f6 3a3d 9394 90bd
00000230: 03cd 87bd f74a a5be c2ae 35bc 47d7 a9ba
00000240: 9ae9 44bc 7798 3c3c 2612 c53c 83e4 9cbd
00000250: 9499 dd3c d2d2 8e3c e5b9 cc3c 07fa 8fbe
00000260: c7d6 133f 8092 64bb 9027 b0be 65b9 743e
00000270: 94f4 363e ef59 a73d e53b aa3d 1167 2fbd
00000280: bb8a d3bd 3eb2 3f3e 19ad cabd b601 55be
00000290: 1319 513b b857 80bc bea6 9b3d 573e 5fbd
000002a0: a131 3fbc eef0 89bd c9a6 4b3d 2457 573d
000002b0: 55f1 c33b c256 043e cb7b fcbd f294 d9bd
000002c0: 911b 05be 65d5 833e f688 5bbd d789 823c
000002d0: 2520 373d 88d5 71bd ac12 8bbc 52ab 2ebe
000002e0: 645d 8abe 3e15 94be 7d6f 0f3d 6331 f03c
000002f0: 8a45 533d 91cc 05be 1151 f63c 7b7d 54bd
00000300: a48b de3c 2183 1f3d fc6e d9bc 30e4 303e
00000310: ec66 7dbd adbc 263f 831d 023e 7fe3 e4bd
00000320: bc3f f13d 7fa7 823d 70f6 2fbd a6e6 b3bc
00000330: d053 5cbe 9c76 f1bd 817f 8ebd eaa4 38bf
00000340: 9d6d 82bc a993 123e f356 87bd d8a1 033d
00000350: 8bfd 0d3d 4bb4 e83c 47b6 9a3b 2655 133e
00000360: 6ed4 c23b 04ce 11be 87ad 653e 6099 2bbf
00000370: f4d8 ee3e 997b 0b3e 7870 94bd b2db 4cbd
00000380: 92af 063d a277 b6bb 9c3e bbbd bb0b fbbe
00000390: b660 85be 30f8 9b3c 89f8 78bc dc47 e43b
000003a0: 58a4 5e3d f6c5 be3d 50ec 38bd 83a0 fe3c
000003b0: a413 c539 1c02 1a3c 96f5 a23c 25d0 65bd
000003c0: 8b32 e53d 2217 fe3d 37e6 d7be 92d8 ebbe
000003d0: b4c3 babe d022 11be bdc6 a0bc 52d1 e9bc
000003e0: 2d73 7fbc dc7b 193f 6e8a d73e b939 453e
000003f0: 5e58 7bbc 6235 64b9 4fe7 f4bb e584 053e
-0.09117757 -0.3267705 -0.03624647 0.24719262 -0.061642878 -0.19120187 0.11457135 0.12836885
0.57175356 -0.43100747 0.028280383 -0.08046778 -0.029426051 -0.22560091 0.22875439 -0.07916738
0.0403231 0.019299999 0.040745057 -0.089317545 -0.24010609 -0.15092482 -0.12662971 -0.14116998
-0.10487117 -0.05278569 -0.06444051 0.043558706 -0.059213985 -0.16516599 0.01081372 -0.5082186
-0.004584751 0.017719442 -0.023831412 0.3670751 0.14660026 -0.11285094 0.06276797 0.018801237
0.0258506 0.05869942 0.25812337 -0.21078613 -0.020033574 0.42451409 0.00058262364 0.019486539
-0.0041133487 0.027253775 0.15506384 -0.43676415 -0.17275345 -0.27025783 0.053691745 0.030826226
-0.0077402135 -0.10697498 0.036476955 -0.12450628 0.06382323 0.017218508 0.027142605 0.26287454
-0.33861536 -0.070627384 0.23329605 0.20125873 0.13787007 0.0048935423 -0.0864602 -0.0069504357
-0.026541274 0.03507378 0.059932195 -0.29122052 0.08710949 0.11203804 0.19295746 -0.005419962
0.08133428 -0.022982374 -0.17438905 -0.022940874 -0.058639415 0.12808368 0.07326858 0.51744705
-0.26379505 0.07363202 -0.013748503 0.008949273 0.03374897 0.106854014 0.02378305 0.047505017
0.13900279 -0.50085765 -0.009615746 -0.10819293 -0.08223958 -0.058210973 -0.043094568 -0.09257347
-0.029087558 0.0154797975 -0.0041669584 0.43784642 -0.31625253 -0.39059734 -0.22348198 0.05633124
0.08076871 0.03624311 -0.01769539 0.03447005 -0.12823221 -0.010585558 0.023116961 -0.19857988
0.028934168 0.00070964743 0.050310943 0.030106893 0.04727326 -0.037651453 0.004302344 0.010862164
-0.0037504795 -0.3656558 -0.21419312 0.2709259 0.23506065 -0.4704408 -0.21708377 -0.054101355
-0.049018044 -0.039987165 0.04564548 -0.07059588 -0.066309 -0.32283756 -0.011089029 -0.0012957834
-0.012018586 0.01151096 0.024056505 -0.07660773 0.02705077 0.017434511 0.024990985 -0.28120443
0.577496 -0.003487736 -0.34405184 0.23898847 0.17866737 0.0817145 0.08312205 -0.0428229
-0.10329195 0.18720338 -0.09896297 -0.20801434 0.0031905815 -0.015666828 0.07600163 -0.05450281
-0.011669547 -0.06735407 0.049719606 0.05257334 0.0059796968 0.1292372 -0.12328299 -0.10624112
-0.12998797 0.25748745 -0.053597413 0.015934868 0.04470839 -0.05904153 -0.016976677 -0.17057541
-0.27024376 -0.28922457 0.035018433 0.029320424 0.05157999 -0.13066317 0.030067952 -0.05187748
0.027166195 0.038943414 -0.02654218 0.17274547 -0.061865732 0.65131646 0.1270657 -0.11176204
0.117797345 0.063796036 -0.04295963 -0.021960568 -0.21516347 -0.11790201 -0.06957913 -0.7212664
-0.015921408 0.1431414 -0.06608381 0.032136768 0.034665626 0.028406283 0.004721436 0.1438795
0.0059457337 -0.14238745 0.22429477 -0.67030907 0.46649897 0.13621368 -0.07248014 -0.050014205
0.03288228 -0.0055684606 -0.09142801 -0.49032387 -0.26050347 0.019039243 -0.015195974 0.006966574
0.05435595 0.09315102 -0.04514724 0.031082397 0.00037589401 0.009399917 0.019892495 -0.056106705
0.11191281 0.12406756 -0.42167827 -0.46063668 -0.36477435 -0.14173436 -0.019626016 -0.028542195
-0.015591425 0.5995462 0.420978 0.192603 -0.015340893 -0.00021763661 -0.007473863 0.13038976

fc1.bias f4 [256]
00000000: 712c 0fbf 616a 1abf 5b7b 0dbf 00cf abbe
00000010: 1c72 e2be 0ece f3be 3073 bfbe 9908 b5be
00000020: 9edc b93e 8832 e9be 94e6 abbd 7b57 87be
00000030: 166d ddbe ee07 09be 1e38 8ebe b0a0 d5be
00000040: 0447 0f3d e19f e1be 7790 a33d 84e8 a7be
00000050: 48a1 c4be c8dc 10bf ec59 7bbe e13f f0be
00000060: 6bba d93d 5057 9d3d d423 b23e bbdb f2bc
00000070: 7347 ad3e 4e54 63be 8e76 e1be 0a79 02bf
00000080: de3b b4bd 2699 d2be 2b63 05bf f9b8 e2bd
00000090: 74af 22bf 5e11 41be 9498 6c3e f186 3ebe
000000a0: 0b63 c0be a4dd 073c 463d 68be 0a7d 5b3d
000000b0: 3dd3 05bf d2b6 10bf fa76 ddbe 5e7b b2be
000000c0: 9565 59be fe8d dfbe 5797 ccbe 6006 99be
000000d0: 543e 8abe 7b93 4b3d fb46 13be 3f82 81be
000000e0: 61e1 43be 8f87 023c 024a 73be b20a 41be
000000f0: 3439 41be dede a73e 3c5a 1fbe cba8 b8b9
00000100: 4c7c b7be 9e51 aebe b6c6 34bf 167c c7bd
00000110: fa0b dcbe 8fd2 84be bb3e 0ebe 37aa 80be
00000120: 67f3 1fbe c359 21bf 09c1 d6be 881e 0cbf
00000130: fdc3 91be d816 36be 6f84 11bf a5a2 25be
00000140: 2e2e aebd ed69 3dbd 535b b6be 400f 37be
00000150: 467e bbbe dd18 d2be 247a 08bf a654 913d
00000160: afae 5abe bb20 56be 3b01 87bd 2ebd c1be
00000170: a11a 62bd e0e7 a3be 5490 fdbe 7489 b43d
00000180: 97be a6bd 11bd b1be 8b40 e4be a669 01bd
00000190: 0795 e8be 52ad 8abe 1ddb 89be 22ad 803d
000001a0: c4cb d5be c134 70be 7237 48be ad74 423c
000001b0: 00e7 89be fcaa 96be 25a9 6fbe 499b ad3e
000001c0: 8f89 0dbf 5fb0 85bc fb15 83be 3d9e 05bf
000001d0: 07c5 d3be 7f47 e6be 61b9 f4bd adf1 d03e
000001e0: 4004 98bd c786 e5be 8301 453e a146 30be
000001f0: 0dd4 3fbe 76ab a9be 8078 9cbe 1f0e f5be
00000200: 9511 43be c275 cabe 6513 9ebe 7c20 dabe
00000210: 7f25 00bf b99a 3f3d dfb9 d3be 3332 8abe
00000220: 69fc 223c 987f a0be 8902 1d3c 3aee 9cbe
00000230: e52e cbbe 5416 d7be c956 96be 2e6b f43c
00000240: 7216 c1be d860 e4bd 543d dcbe 2306 143e
00000250: 6905 8c3e aa0c efbe 2e30 9dbd 9e5c 84be
00000260: 51ce 1abf 1dce 85be 4651 59be d71f efbd
00000270: cc7f c7be fd97 2abf 3210 06bf 16e1 9dbe
00000280: a873 c9bd 6910 90be 1b70 04be 6d31 a6be
00000290: 734a 5ebe 3667 25be 5380 31be 9914 4bbe
000002a0: a9f3 adbe 88ab 2abe e543 8abe f5b4 6ebf
000002b0: 37e3 11bf 215f 01be f95f ffbe 71d4 28be
000002c0: bbfe b3be 692c e4be cdfd f2be 7387 90bb
000002d0: 90af 45be 9424 b8be 939f 78bc c50f db3e
000002e0: 7a64 b5be e555 a5be 2a80 b9be a17b 58be
000002f0: 2c58 0bbf 0732 5cbe 26d7 09bf a92e 9dbe
00000300: 44e7 a6bd bfa7 01bf a592 1abf b18d 3cbe
00000310: 5a47 7fbe 6df9 a4be e6f9 c1be 4120 bbbe
00000320: da04 02be 5464 d9be e6cd d4bd 3b84 81bd
00000330: 2a14 f4bd 9b84 01bf e8b3 75be d6b9 80bf
00000340: 02fb 2cbf b330 0fbf ef37 86be bbb4 063d
00000350: f5ef c4be ac45 a5be 3bc0 00bf ab65 b2be
00000360: 8272 80be 4acd 68bd 867d 4bbd 6556 f0bd
00000370: f69d fabe 276c 34be 0065 97be 1bbc a8bd
00000380: 2613 80be 5b03 db3e 37e3 debd fa04 d3be
00000390: 1343 37be 6bda dbbe 68fd 04be accf 51be
000003a0: ddfb c5be 917b 93be 9b06 25bf 9a99 30bf
000003b0: 1c36 4cbe 71fa 8c3e 9da3 66be 1c3c 89be
000003c0: 4fcd f0be d154 d9bd f4c6 39be 0016 3dbe
000003d0: 329a bf3c 44e6 c33e 064e 18bf 60de 98be
000003e0: 0172 a5be 202e 853e a1cd 8dbd ba46 83be
000003f0: 4c83 a13e 71e1 c0be 610e fdbe 80fc e9be
-0.5592719 -0.6031857 -0.5526635 -0.33556366 -0.44227684 -0.47618145 -0.3739257 -0.35358122
0.3630113 -0.45546365 -0.08393589 -0.2643393 -0.43247288 -0.13381931 -0.2777719 -0.41724157
0.034979835 -0.4406729 0.07986539 -0.32794583 -0.38404298 -0.56586885 -0.24546021 -0.46923736
0.106312595 0.07682669 0.3479296 -0.029645791 0.33843574 -0.22200128 -0.44035763 -0.5096594
-0.08800481 -0.41132468 -0.52104443 -0.11070437 -0.6354897 -0.18854281 0.23105079 -0.18606164
-0.37575564 0.008292589 -0.22679624 0.053586043 -0.5227545 -0.5652896 -0.43254834 -0.34859747
-0.21230157 -0.4366302 -0.39959213 -0.29887676 -0.27000678 0.049701195 -0.14382546 -0.25294682
-0.19128944 0.00796689 -0.237587 -0.18851736 -0.18869478 0.32787222 -0.15561765 -0.00035220975
-0.35837018 -0.34046644 -0.7061571 -0.097404644 -0.42977887 -0.25941893 -0.13891117 -0.25129864
-0.15620194 -0.6302759 -0.4194415 -0.54734087 -0.2846984 -0.17782152 -0.568427 -0.16175325
-0.08504902 -0.046243597 -0.3561655 -0.17876911 -0.36619776 -0.41034594 -0.5331137 0.070962235
-0.21355699 -0.20910923 -0.065920316 -0.37839645 -0.055201177 -0.32012844 -0.49524176 0.088152796
-0.08141821 -0.3471456 -0.44580492 -0.031594895 -0.454262 -0.27085358 -0.26924983 0.062830225
-0.41757023 -0.23457624 -0.195524 0.011868638 -0.26934052 -0.29427326 -0.23404367 0.33907536
-0.5528802 -0.016319452 -0.25602707 -0.5219458 -0.41361257 -0.44976422 -0.11949421 0.40809384
-0.074226856 -0.4482939 0.19238858 -0.17214443 -0.18733235 -0.33138627 -0.30560684 -0.47862336
-0.19049676 -0.39542967 -0.30874172 -0.4260291 -0.50057214 0.046778414 -0.41352746 -0.26991424
0.009947875 -0.31347346 0.009583124 -0.30650502 -0.39684215 -0.42009223 -0.29363087 0.029836264
-0.37712437 -0.11151284 -0.4301554 0.14455466 0.27347878 -0.4668935 -0.07675205 -0.2585191
-0.60471064 -0.26133814 -0.2122241 -0.11675995 -0.3896469 -0.66638166 -0.5236846 -0.3083579
-0.09836513 -0.2813752 -0.1293339 -0.32459584 -0.21708088 -0.16152653 -0.17334108 -0.19832076
-0.3397496 -0.16666996 -0.27004924 -0.9324487 -0.5698733 -0.12633945 -0.4987791 -0.1648729
-0.3515528 -0.44565132 -0.4745926 -0.004410678 -0.19305253 -0.35965407 -0.015174764 0.4278547
-0.3542822 -0.32292095 -0.36230594 -0.2114091 -0.54431415 -0.21503459 -0.53843915 -0.3069966
-0.08149579 -0.50646585 -0.6038001 -0.18413426 -0.24929562 -0.32221547 -0.3788597 -0.36548045
-0.12697163 -0.42459357 -0.103908345 -0.06324049 -0.119179085 -0.50592965 -0.2399441 -1.0056713
-0.6757051 -0.55933684 -0.2621455 0.0328872 -0.38464323 -0.32279718 -0.5029332 -0.34843192
-0.25087363 -0.056836404 -0.049680255 -0.117352284 -0.4894864 -0.17619382 -0.29569244 -0.08239003
-0.2501461 0.42775998 -0.108831815 -0.41214734 -0.1789668 -0.42940077 -0.12987292 -0.20489377
-0.3866872 -0.2880521 -0.64463204 -0.6898438 -0.19942516 0.27534822 -0.22523351 -0.26803672
-0.47031638 -0.106118806 -0.18142301 -0.18465424 0.023388956 0.38261616 -0.59494054 -0.2985716
-0.3231354 0.26011753 -0.06923986 -0.25639898 0.31545484 -0.37671998 -0.49425033 -0.45700455

fc2.weight f4 [256, 256]
00000000: 56df 273d e8bb c8bd 393f 273d ef12 b33e
00000010: 39bd ff3c a45d 67be ca9a 4b3c b914 95bc
00000020: fdd1 4ebf fdb4 32bb dd76 b2be 7a05 03be
00000030: 4c0f 823e c690 a8be 9d86 053e b8df 4b3d
00000040: 5c67 8c3d 51c6 ee3e 9933 f13d 6989 dd3e
00000050: e5fa 8c3c 5882 69be 38fd 6e3e c3d8 343e
00000060: d429 80be 6ba8 4b3b 4e59 7abe 4b8d e53d
00000070: 0f5d a5be 6866 0cbc 3ea0 1a3f cb52 1e3f
00000080: ec5d e03d 051f 9c3d 5f03 123e 2657 7abc
00000090: 8eff 243e 7695 6d3d 2b59 85be 96c2 e4be
000000a0: 71f4 6b3e 4130 d6bd a240 5d3d 0021 3bbe
000000b0: 9537 63bc de60 9f3e 96ec 73be 11d8 5a3e
000000c0: e280 7fbe d62e 71bd 5b4c 52be 9831 363e
000000d0: f2e0 113e e005 a6be 560b 1abd 6c5d 563d
000000e0: ca9f a5be 95bc 963d 8556 08bd c838 88be
000000f0: ade6 c63d 63dd 23bf c1bc 273e 39ad 20bd
00000100: 4459 9dbe ce0c b83d 88a4 d93e d842 49be
00000110: 5ce2 33be fa59 4c3e f3fa fcbd 8f3b f93c
00000120: 92f1 083d 473e 673e 634c 193e 4d36 873e
00000130: c4f8 663e b472 d33d 11e0 4bbe ea5e fdbd
00000140: f5c8 393b 9b9b 0c3d 73d7 6abe 8ed2 8c3e
00000150: 2284 38bd 0d56 afbd 48bf 263e 8104 94be
00000160: 6207 043f 810d 813e 74c8 3abe 2002 51be
00000170: 212e acbc 5b28 8a3d 1ffc 8fbe ecbb 0d3c
00000180: 372f 8f3d 998e 103e 4d65 343e 440a 9c3d
00000190: 1682 763e 379d 50be 7a01 233e 0943 bf3d
000001a0: e7c5 7e3d 8071 de3d 4421 e33c 3485 0cbe
000001b0: 3062 7b3e caff 3abe 6902 773d 2edb 0fbf
000001c0: f6df c53d 63ff d23d 7a4a e93c 6735 193e
000001d0: 75ca 1cbe f3fc c13d b8c3 b7be 4fef 24bf
000001e0: 3e95 07bd 4f28 8abe 4a32 273e 1692 023e
000001f0: cb7e 83be 6d47 713d 302a c13e 1331 c23d
00000200: 59a4 a93e 65ec bf3d 072f bbbc a414 9c3d
00000210: caaa 4f3d 16ce d7bc fcdc 93bd 62f1 593e
00000220: 2279 5abd d297 71be ad42 35bb a88a 07be
00000230: 9036 c3be 056f 72be fed0 8c3c f268 0e3d
00000240: 840b 003d 0e88 4bbe f4f9 3f3e d842 c4bd
00000250: 47ee b6be 60ca 583c 2870 063e d7f0 8abe
00000260: 2105 ac3e f623 223d 052a a23e eb59 723e
00000270: 0a6b 64be 6e26 323e f370 a13d 267d a2bd
00000280: 6874 a0be 8b5e 963e 0bda 12bd 8c74 97bd
00000290: b0f7 f0be 9db2 4cbe 3524 97bc 8f1b 0cbd
000002a0: ea50 08be 1cd2 f3be 9878 d53d 462e 5b3e
000002b0: 9d5c bd3d 2e6f fb3c 3709 2d3e f873 50be
000002c0: b59b af3e e4f8 93bd 3fe3 883e a387 ecbe
000002d0: 55fe 933e c60c b53d e617 e63d 8afc bcbe
000002e0: ef0b 253d c04f 123e ba3e 353d afd6 42be
000002f0: 190c d53d b8cd a73d adb4 babd 9fe5 8fbc
00000300: 4c3e d6bd 4b49 233d 9acc 93bd ea38 963c
00000310: 814b fcbd cb49 e03c 476a 323d 136e 613e
00000320: 8a40 973d ba76 cdbc 4f98 fa3d 96d6 62be
00000330: 0ce0 f03d 75d8 0d3d e8e2 4b3e 91fc dcbc
00000340: 5bcb df3e fe18 e33e 82b4 053e 6ae1 a2bd
00000350: a0c8 cfbe 39c8 883c 58fa 45bd 4e8d b5bd
00000360: 907e 023e e099 a23d 3feb 0d3e ffc0 153d
00000370: af26 be3e 7928 e13c 66c8 6dbd 2935 4cbe
00000380: 2dea 6fbd 8b30 21bf be6a 70bd 7e33 e93b
00000390: 1608 6e3d 4396 d43d 0301 34bd ad28 8cbc
000003a0: 0683 eebe 6cd3 5dbe 755b 343e 8353 8d3e
000003b0: 474c 47be 4fad 7d3d 0adb 2f3d d9e8 b43d
000003c0: afdc 9abe ad1b d1bd b6d5 673e f764 1ebd
000003d0: f415 86be fb46 3cbf 4227 0d3d ff38 f5bd
000003e0: f242 f3bd ea89 b2bd ae07 f73e 3087 86be
000003f0: e9ef 88bd bd69 a2bd 896b 873d 34d7 4cbe
0.040984474 -0.09801465 0.04083178 0.34975383 0.031218158 -0.22594315 0.012427041 -0.018198358
-0.80789167 -0.0027268522 -0.3485631 -0.12795058 0.25402296 -0.32922953 0.13039632 0.0497739
0.06855652 0.46635678 0.117774196 0.43268898 0.01720948 -0.22803628 0.23338783 0.17660813
-0.25031912 0.0031075727 -0.2444813 0.1120859 -0.3229756 -0.008569337 0.6040076 0.6184508
0.10955414 0.07623104 0.14259098 -0.015279567 0.16113111 0.058003865 -0.26044592 -0.44679707
0.23042466 -0.104584225 0.054016717 -0.18274307 -0.013868232 0.3112859 -0.23820719 0.21371485
-0.24951509 -0.058882557 -0.2053694 0.17792356 0.14245966 -0.32426357 -0.037608467 0.052335188
-0.32348472 0.07360188 -0.033285636 -0.2660582 0.09711967 -0.64009684 0.16380598 -0.039227698
-0.30732167 0.08986817 0.4250834 -0.19654405 -0.17566818 0.19956198 -0.12352552 0.030423908
0.033433504 0.2258235 0.14970545 0.26408616 0.22555834 0.10324612 -0.19909693 -0.12371619
0.002834854 0.034328084 -0.2293375 0.2750439 -0.045047887 -0.08561335 0.16283906 -0.28909686
0.51573765 0.25205615 -0.1824053 -0.20410967 -0.02101809 0.067459784 -0.2812204 0.008650761
0.069914274 0.14116897 0.17616768 0.076191455 0.24073061 -0.20372473 0.15918532 0.09338958
0.062200453 0.10861492 0.027725823 -0.13722688 0.24549174 -0.18261638 0.060305033 -0.56193817
0.09661858 0.103026174 0.028477896 0.14961778 -0.15311606 0.09472074 -0.3589151 -0.64427656
-0.033101313 -0.26983878 0.16327778 0.1275104 -0.25682673 0.058906008 0.377275 0.094820164
0.331332 0.093712606 -0.022849573 0.076211244 0.050699987 -0.026343387 -0.07219884 0.21283486
-0.053338178 -0.23593071 -0.002765815 -0.13236487 -0.38127565 -0.23675163 0.017189499 0.034768052
0.031260982 -0.1987612 0.18747693 -0.09583062 -0.35728666 0.013231844 0.13128722 -0.2713687
0.33597663 0.039585076 0.31672683 0.23667113 -0.22306457 0.17397472 0.078828715 -0.079340264
-0.3133881 0.29369006 -0.035852473 -0.073952764 -0.4706397 -0.1999001 -0.018449882 -0.03420597
-0.13312116 -0.47621238 0.10423392 0.2140437 0.0924618 0.030692663 0.16898046 -0.20356739
0.34298483 -0.072252065 0.26735875 -0.46197233 0.28904977 0.08840327 0.11235027 -0.36911422
0.040294584 0.14288235 0.044249274 -0.19027208 0.10402698 0.081935346 -0.091164924 -0.017565547
-0.10461101 0.03986482 -0.07216759 0.018337686 -0.12319089 0.027378937 0.043558385 0.22014646
0.07385357 -0.025081027 0.12236082 -0.2215217 0.117614836 0.034630258 0.19910777 -0.026975902
0.43709835 0.44355005 0.1305714 -0.079531506 -0.40582752 0.016697036 -0.04833445 -0.08864842
0.12743592 0.079395056 0.1385927 0.03656101 0.37138888 0.02748512 -0.058052443 -0.19942154
-0.058572937 -0.62964696 -0.058695547 0.007116734 0.05811318 0.10380223 -0.043946277 -0.01710924
-0.46584338 -0.21662682 0.17613013 0.27602777 -0.19462691 0.061932858 0.0429335 0.08833475
-0.30246493 -0.10210357 0.22640118 -0.038670506 -0.26188624 -0.7354581 0.034461267 -0.11973762
-0.11878003 -0.08717711 0.48248047 -0.26275015 -0.06686384 -0.07930324 0.066123076 -0.20003968

fc2.bias f4 [256]
00000000: 6389 0ebf c537 bd3d e83e dd3d 76e3 ecbd
00000010: 0646 033d 0a96 52bd f1d0 49be 13a8 10be
00000020: aa01 e13e bba6 8bbd 4cfa 01be 62a1 563d
00000030: c91e 1a3e d050 833e 5bab 163e 1b3b 82bd
00000040: 60db 813d 9309 6b3e 2681 28bd c2bf 5e3d
00000050: 6105 033d 094b 28bf 6c0d b63e d9dc 413c
00000060: 25dd 563d 9ea6 c2bd 73a1 b1bd d449 243d
00000070: f213 4ebe 0130 08bf a308 763e 1bb5 0cbe
00000080: fed0 4e3e f021 28bf 2a72 16bd 4676 bbbd
00000090: a088 7d3b bd5d c938 6b66 79bd 31b2 3b3e
000000a0: 2e19 693d 8f77 42bf 5454 abbe 6d97 9b3c
000000b0: 9af1 fc3e 4609 963d 88cc 09be e656 b3be
000000c0: 1705 7a3e 87d8 9eb9 899a a1bc 6931 6dbd
000000d0: 8ecb a1be f391 71be a344 f03d 40c8 3bbe
000000e0: a8f4 2dbd 1fcb f13d 8c57 8bbe c45e c33d
000000f0: 3605 81be 6f84 3cbe e040 ecbe 949b a7bc
00000100: 36ba dcbd fc24 d1be bef4 b13c 552a 263d
00000110: e35f 84bd 5635 dbbd 736e 83be 1f86 1abf
00000120: a044 ff3e e6fa be3c 2e6e ffbc 355c 83be
00000130: 1fb1 e2bd c332 1bbe c15d 273d 1cf3 c23c
00000140: 2ced 92bd 1637 74bc 63f6 2abe d1de c8bd
00000150: 7568 43be 6f76 0ebe da91 073e 2fc2 c2bd
00000160: ccc8 013e 12ad f0be 4715 bfbe b71f 503e
00000170: 54b6 663d b5ff f23d af7d 14bd 3bb5 35bf
00000180: f2f9 6dbe 5748 21be 2b49 403e 42f7 4fbe
00000190: fc1b 18be d43c 0e3e 19fd f5be c33d cbbd
000001a0: 4309 54be ebbe b33e 7ea1 45bb 4598 4a3e
000001b0: 635f 483d 7102 8e3d 9035 c8bc 870c 123e
000001c0: 1891 75bd 8b75 55be 4008 483e b15b 86be
000001d0: 7749 cdbd 4cd1 f5bd 079f d1bc 99bb 9fbc
000001e0: fe19 903e ecdc 6fbc 2391 51bd 5690 2cbd
000001f0: cdf8 b5bd 82a8 f6be a319 8dbe 5ab2 373e
00000200: 2d58 73bd 40f0 afbd 006b 7a3b 15c0 97be
00000210: 1c06 3b3d d71e ecbe e745 c83c 25ae b7bd
00000220: 26e5 1dbf f83e d23d 242e 2fbd b41c 51bf
00000230: 8b22 babd 84db fabd c435 053d d87f b9bd
00000240: fcca 7abd 4305 fd3b 2ca0 5dbd 0384 cdbd
00000250: 133d a03d d96d abbd 3df2 173e a04b 013d
00000260: 8db5 3cbe 1a58 0c3e dfda 22bd 194a c73e
00000270: a2a3 983d d996 97bd 3e51 0b3e 46a0 fc3d
00000280: 57da c0bd 32b2 f73d 5fbc f33d a7e0 7c3d
00000290: bdbe 2abd 90fa 25be 8400 8f3d b825 6cbd
000002a0: 6f81 463d 6f6e 9c3e 66f5 213d 93fb 1b3d
000002b0: de16 aebb 3ed4 4b3c c758 0f3e 483b cdbc
000002c0: eff0 953d f0e0 c4bb cfb8 e33d b151 1c3d
000002d0: 7d3a e5be 8a0e 71bd e893 1fbd b6ca 573e
000002e0: 10fa cabd f794 3f3d 94c8 8abd fb6f 533e
000002f0: bd82 8cbd 1f51 0b3e c2ec 19be bdf1 a2bd
00000300: 30ec 19bd 574a 85bd 221f e23e 3c2b 5ebd
00000310: cb45 5f3d 05ac 4d3e e691 90bd d8a5 1cbd
00000320: d9c6 0dbe 1510 6cbd 912f 533d 0823 593e
00000330: abb4 80be e88a 16bc b27d 083e 0766 a7bd
00000340: 2c8a f0be 157c 903e 9689 9dbd bf4f abbc
00000350: 6d3b 0d3e 4988 8ebe 5eb9 863e 59dd 9dbd
00000360: 9c99 82bf 80b9 e1be 56a8 db3d 5ba9 133e
00000370: 13e1 b8bd 0279 773e c755 423e b439 513e
00000380: 0fb1 36be 114a 353d decd a7bd 5997 f3bd
00000390: f98b 7b3e f585 aabb 13b3 e5bd 38fa 673a
000003a0: 0b93 933e b287 efbd ebfa 0bbe 7485 8abd
000003b0: 161d aabd 3b73 f2bd 7384 f1be 392a efbd
000003c0: 684f 2f3d 6c97 40bd 4194 5ebe 3722 e8bd
000003d0: 316c 113e 389c bbbb d7d1 8cbe b86a 043e
000003e0: 8d13 443e 8f82 f1bd b154 7c3e dd36 56bf
000003f0: bd53 61be 2a8a 883e 052d ce3d 096c c63a
-0.55678385 0.09239153 0.10803014 -0.11566822 0.0320492 -0.05141262 -0.19708611 -0.14126615
0.43946582 -0.06818911 -0.12693137 0.0524 0.15050806 0.25647593 0.14713804 -0.0635893
0.063406706 0.22952871 -0.04113879 0.054382093 0.03198755 -0.65739495 0.35557115 0.011832439
0.052456994 -0.09504436 -0.08673372 0.04010947 -0.20124796 -0.5319825 0.24026732 -0.13740961
0.20196912 -0.65676785 -0.03672997 -0.09153418 0.0038686171 9.601887e-05 -0.06088869 0.18329693
0.05690878 -0.7596368 -0.33462775 0.018993104 0.49403077 0.073259875 -0.13456929 -0.35027236
0.24416004 -0.00030297434 -0.019727008 -0.05790845 -0.31600612 -0.23590831 0.117318414 -0.18338108
-0.04246965 0.118063204 -0.2721523 0.095395595 -0.25199288 -0.18409894 -0.46143246 -0.020459928
-0.107777044 -0.4084853 0.021723147 0.040567715 -0.064636014 -0.107035324 -0.25670204 -0.603609
0.49857044 0.023312997 -0.031180467 -0.25656286 -0.110689394 -0.15156083 0.040860895 0.023797564
-0.07174143 -0.014905712 -0.16695552 -0.09808124 -0.19082816 -0.13912366 0.13239232 -0.09509694
0.12674254 -0.47007042 -0.3732092 0.20324598 0.056326225 0.118651785 -0.036252674 -0.7097966
-0.23239878 -0.15750252 0.18777911 -0.20309165 -0.14854425 0.13890392 -0.4804466 -0.099238895
-0.20706658 0.35106596 -0.0030156071 0.19784649 0.048919093 0.069340594 -0.024439603 0.14262591
-0.059952825 -0.2084562 0.19534397 -0.2624183 -0.10023778 -0.12002811 -0.025588525 -0.019498633
0.2814483 -0.014640074 -0.051163804 -0.042129837 -0.088853456 -0.48175436 -0.27558622 0.1793913
-0.059410263 -0.08590746 0.003821075 -0.29638734 0.045660123 -0.4611728 0.024447395 -0.08968762
-0.6167778 0.102659166 -0.042768613 -0.8168442 -0.0908862 -0.122489005 0.032521978 -0.090575874
-0.061228737 0.0077215745 -0.05410783 -0.10034945 0.07824149 -0.08370561 0.148385 0.031566262
-0.18428631 0.13705483 -0.039759513 0.3892372 0.074530855 -0.07401819 0.1360521 0.12335257
-0.09416645 0.12094535 0.11901163 0.061737683 -0.04168581 -0.16208863 0.0698252 -0.05765316
0.04846328 0.30553004 0.03954067 0.038081717 -0.0053127846 0.012440739 0.1399871 -0.025052682
0.07321345 -0.00600826 0.11119234 0.038163844 -0.44771186 -0.058851756 -0.038959414 0.21073422
-0.09910977 0.046772923 -0.067765385 0.20648186 -0.06860874 0.13605164 -0.15031722 -0.07956264
-0.03757876 -0.0650832 0.44164377 -0.05424045 0.05450992 0.20085151 -0.07059078 -0.0382441
-0.13845386 -0.057632525 0.051559035 0.2120477 -0.2513784 -0.009188391 0.13329199 -0.08173757
-0.46980417 0.28219667 -0.07692258 -0.02091205 0.137922 -0.27838352 0.263133 -0.07708234
-1.0203128 -0.44086838 0.10725467 0.14420073 -0.090273045 0.24167255 0.18978034 0.20432168
-0.1784098 0.04426009 -0.08193563 -0.11894102 0.24565114 -0.005203957 -0.11215796 0.0008849236
0.28823122 -0.11695804 -0.13669936 -0.067637354 -0.08306329 -0.11838385 -0.47171363 -0.11677975
0.042800337 -0.047019407 -0.21736242 -0.11334651 0.14201428 -0.00572541 -0.27503845 0.12931335
0.19148083 -0.1179248 0.24641682 -0.83677465 -0.220046 0.2666791 0.100671805 0.0015138398

fc3.weight f4 [256, 256]
00000000: 6a40 01bc 91ce 76be 4bb0 3bbe bb6e 86be
00000010: 9cb6 80bc 5dd0 44bc f596 33bc d012 25bf
00000020: 256f edbd 0184 c23e 94f3 05be ef51 8dbe
00000030: b4a3 e5bd aca8 38bd 2293 1abd 2969 363d
00000040: 84da aebe b717 003e 318f 1bbd 4bc2 23bf
00000050: 96b5 25be b66b dd3d 28e2 b3be b3b4 0a3e
00000060: 6ca9 223e 186d d8bc 725b d03d 07b1 8ebe
00000070: 26ef 8fbe 1d3d e53d 9be5 28be d2d2 19be
00000080: 2e01 0f3e 1ac7 23be 306a 7a3c 7e27 a13e
00000090: 50f8 debd a2ed 3a3d 906b 34be d311 bdbe
000000a0: e3f8 60be cce7 89bd 5720 2c3e f14f 3abd
000000b0: 62b0 89be 8e01 003d 10c1 13be b0b6 debe
000000c0: 249e b3be 2aba 093e 9c50 8ebe 0bfa d53b
000000d0: 72f3 0ebf 4d41 6d3e 4c5e 7e3e fa43 bebd
000000e0: 92ad 353e ba29 273d 1d11 423e 4584 96bd
000000f0: c5e4 92be 6c5a 08be 7496 36be c482 15bd
00000100: 2167 b4be c378 aebd 17f8 693d b29c c33e
00000110: 417d 643d 4738 143d 10f3 5c3e 9536 a1bd
00000120: 5fa1 123d d072 da3d 4a16 30bd a280 e0be
00000130: 9244 0f3e 189c bf3d 8a22 c2bc acbf 093d
00000140: 3426 713b 4ba9 f3bb 68e0 29be f3b4 203e
00000150: 0e2b 7bbe b7f2 c73d dfe8 9a3d 8128 303d
00000160: a767 b23d 999e c3be b9bb 52bd dc93 013e
00000170: 78f1 9cbe 4b45 9a3e 7a01 f3bc 039b 51bd
00000180: ae39 29be 5fa6 cabe 5d32 463e 1224 1abf
00000190: aaf5 c3be fe17 4c3e 4c48 f5bd 9a28 81bc
000001a0: f30d 443e 5914 84bc 26c6 a9be c84b 8dbe
000001b0: f38b 72bd f701 923d 86c8 67bd 953a f4bc
000001c0: 7777 c0bd 13c8 8cbd 7712 573e 3afe 04bf
000001d0: 7d39 38bd f866 21bd f213 513d ea11 8dbc
000001e0: a253 f0be 7f8b 4b3a b1aa eebd b746 4dbd
000001f0: 0dd2 1fbe eba3 833e 3ec6 693e 5631 a3bc
00000200: cfdb 32bd 5ecf dd3b 2077 22bd 84eb 90bc
00000210: 6f5f 823c 9537 cfbe 0d67 91be 8f35 1e3d
00000220: e794 37be 0c4e 44be e6b7 43be f00b be3c
00000230: a698 3dbf f0ae 08be a8b9 8a3e 4e16 2ebe
00000240: d33d 133c 5fab 1dbe e672 f7bd f81e 7dbd
00000250: 2d99 553d 46a6 f73d a1c3 cd3c 9384 6d3d
00000260: 8f5c 03bb da4f a43c 6c51 2c3c 737b 49be
00000270: 3fcc a8be 79d3 8e3d 77b9 d8bc 7702 64be
00000280: 72bb c1be b1a0 63be bc1b 6e3e cb4d 283e
00000290: 32ef a6bc f959 8fbf de70 78be 9d1c 9c3d
000002a0: 47c6 bbbd a7b7 9cbe 7233 703d 6da5 c7bd
000002b0: 8aad 0c3e 3708 dbbe bf39 0abf 08f0 cbbb
000002c0: f8c7 f8bb 6f63 43be 42f4 6cbe bf50 963e
000002d0: 1166 39be 8135 26be dc8a d9bd 32cc 293d
000002e0: 2157 013e a485 37bd 8b8a 3b3c 1e07 113e
000002f0: 153a 96bd d59e 5abd 3ccd 2cbe 60ad f3bc
00000300: f338 69be 3605 88bd a5e8 c2be 5705 eabe
00000310: 368d c8be b50e 743c 5e74 54bc 601f bebc
00000320: b44a 8d3d 3ae2 583c 0653 a4bd 42ea c8bd
00000330: 0f04 24be a856 203b 615d 38bd 74a8 3dbd
00000340: 97df 24be 9e9d 583e f552 63be ed42 133d
00000350: ca70 9f3e 6b97 fbbd 82f3 ccbd 72a8 02bd
00000360: fd4a cfbe 42a3 04be 9a44 fbbe 1bc0 16bd
00000370: d132 483d 9359 c93e 94db 223e b467 48be
00000380: ae75 8dbe 34c7 fd3d cb6a 7abd d865 d03e
00000390: d6b4 4d3e eefa ef3c 764b 12be 6a1e a73d
000003a0: 5e6e ddbd a3bd 153c cac9 143e bf65 293d
000003b0: 1e28 bcbd 89a5 05be b9f2 c0be a0a1 243e
000003c0: 2c5a 32bf 0cdf 5e3e eebb 9d3e 7a77 7f3e
000003d0: c71f ad3e d96c 4cbd 38e4 88be 0387 cf3d
000003e0: b68c 9f3e 2d8e cebe 13f5 0e3c febc 60bc
000003f0: 41d1 08be 6030 cdbe 100f e8bc 53b0 01bd
-0.007888893 -0.24102236 -0.18328969 -0.26256356 -0.015712075 -0.012012568 -0.010961284 -0.6448183
-0.11593465 0.37991336 -0.13081199 -0.27601573 -0.112128645 -0.045082733 -0.037737973 0.044533882
-0.3415109 0.12509046 -0.037978355 -0.6396834 -0.16182551 0.1081156 -0.3513348 0.13545494
0.15884942 -0.026419207 0.10173692 -0.27869436 -0.28112143 0.11193297 -0.16493838 -0.15021828
0.13965294 -0.1599392 0.015284106 0.31475443 -0.108872056 0.04563678 -0.17619157 -0.3692766
-0.21969943 -0.06733665 0.16809212 -0.045486394 -0.26892382 0.031251483 -0.14429116 -0.43498755
-0.3508159 0.13449922 -0.27795875 0.0065300516 -0.5584022 0.23169442 0.24840659 -0.09290309
0.17741993 0.040811278 0.1895184 -0.07349447 -0.28690162 -0.13315743 -0.17830831 -0.03650166
-0.3523493 -0.08519127 0.057121363 0.38205487 0.055783514 0.036186483 0.21577096 -0.07871739
0.035798427 0.1066643 -0.042990007 -0.4384814 0.13991001 0.093559444 -0.02369811 0.03363006
0.0036796452 -0.007435953 -0.1658951 0.15694027 -0.24528143 0.09763091 0.07563948 0.043007378
0.08711176 -0.38206938 -0.051448558 0.1265406 -0.30652976 0.3013099 -0.02966379 -0.05117322
-0.1652591 -0.39580056 0.1935515 -0.6021129 -0.38273364 0.19931027 -0.1197668 -0.01576643
0.19145946 -0.016122984 -0.33158988 -0.2759688 -0.059215497 0.07129281 -0.05658772 -0.02981309
-0.09397786 -0.06874099 0.21003138 -0.5195042 -0.0449767 -0.03940484 0.051044412 -0.017220456
-0.46938807 0.0007764622 -0.116536506 -0.050116267 -0.15607472 0.25710997 0.2282953 -0.019920986
-0.043666657 0.006769105 -0.039664388 -0.017690428 0.015914647 -0.40472093 -0.28398934 0.038625296
-0.17927895 -0.19170398 -0.1911312 0.023199052 -0.7406105 -0.13347983 0.2709477 -0.17000696
0.008986908 -0.15397404 -0.12082462 -0.061797112 0.052148033 0.12092261 0.025117697 0.05798776
-0.0020044183 0.020057607 0.010517459 -0.19675998 -0.32968327 0.06973929 -0.026455624 -0.22266565
-0.37838322 -0.22229268 0.23252767 0.16435926 -0.02037773 -1.1199332 -0.24261805 0.07622645
-0.09168678 -0.30608866 0.058642812 -0.09748349 0.13738075 -0.42779705 -0.53994364 -0.0062236823
-0.0075921975 -0.190809 -0.23140052 0.2935848 -0.18105341 -0.16231348 -0.106221884 0.0414545
0.12630893 -0.044805184 0.011446605 0.14162871 -0.07335297 -0.05337413 -0.16875166 -0.029745758
-0.2277563 -0.06641619 -0.3806812 -0.457072 -0.39170235 0.014896085 -0.012967197 -0.02320832
0.06899014 0.01323753 -0.08023648 -0.09810306 -0.16017173 0.0024465714 -0.045010928 -0.046303228
-0.16100918 0.21153876 -0.22199614 0.035952497 0.3114074 -0.1228474 -0.10007383 -0.031898923
-0.404869 -0.12952903 -0.49075776 -0.0368043 0.048876587 0.39326152 0.15904075 -0.1957081
-0.27628845 0.123915106 -0.061137002 0.407027 0.20088515 0.029294457 -0.14286599 0.08160098
-0.108120665 0.009139451 0.14530101 0.0413568 -0.09187339 -0.13051428 -0.37685183 0.1607728
-0.6966884 0.21764773 0.3080744 0.2494792 0.33813307 -0.049908493 -0.26736617 0.10133173
0.3116204 -0.40342847 0.008725422 -0.013716934 -0.13361074 -0.4007597 -0.028327495 -0.031662297

fc3.bias f4 [256]
00000000: 2308 4cbc 9585 40be 3446 80be 741b e1bd
00000010: 0225 873e 9e21 90bd f997 d4be 960a 71be
00000020: 8084 a4bd 911b 64be 064b 683e 0589 083b
00000030: 9ea4 223f 4dbd d3bd 6521 35bd bc89 eb3d
00000040: 7fc1 75be d842 793d 63d3 dcbe 7e16 19be
00000050: fc80 9bbe d565 b1bd 0728 c53e 2534 b93e
00000060: 1b68 8a3e d304 383e ee4f b0bd b548 1f3e
00000070: 370a d2bd 80f2 993e 00fd 8cbd d287 1ebe
00000080: c707 9ebe 4b0c bebe 7266 3abd d16d eabd
00000090: 3292 113e e302 81be f67b 96be e378 98bd
000000a0: 8ebf 02be 7739 233e 6c08 c53d 83db 9f3d
000000b0: 77f7 223e 6d21 b4bd 04ff 1cbe 567c 8f3e
000000c0: 8043 fdbd 705a 953d 98e5 63bc 6bd3 e83d
000000d0: 19f8 573e 3a53 dc3d 29ae 94be 7f03 cf3e
000000e0: 548d 0a3e f387 d3bd fc80 3cbd 71c8 85bd
000000f0: 9187 0e3d ec10 aebe 6a86 0c3f eaf7 0ebe
00000100: d78b 3b3e 402c f43d f7e7 6dbe d7e1 333d
00000110: 2c27 bdbc 7a5b 2ebe 166b a1bd a9df c33d
00000120: e63d c3be b6c7 3fbd 8f37 0fbd a1f6 ce3a
00000130: 5768 413e f103 643e 2334 aabe e621 74bb
00000140: 6ad6 82be 3f10 063e be6d d03d 4572 e23d
00000150: 2e8e 073e a5b6 e7bd 3ed0 dcbe a924 17bd
00000160: 75d8 aebe 2f3a 23be 1b6c 75be c2af bdbe
00000170: 1eff 903d 0360 dfbe 2968 833e fc19 493e
00000180: 4231 3dbe 0619 443b a6e3 32bd ac06 bcbe
00000190: 1132 8dbe 3b7b 733d f16f 313e 1c9f 8ebe
000001a0: e73d 07be 906b 77be a749 603d 51a5 363e
000001b0: ef4b cc3d 58bb 783e 71da 3abe 2109 f8bd
000001c0: 094e fbbd 348b 0b3e dc50 a53e 3f45 e83c
000001d0: 5e22 7e3e 3784 2e3d ef4d 2fbe ddc7 fc3b
000001e0: 5cd4 bb3d 67a0 57bd 5abf 353e 2a6b 383d
000001f0: 07d1 583e a1e4 80be 56e5 57be 41a6 f5be
00000200: a84e 9c3e 1652 4fbd e34f 6bbe 03ad e3bd
00000210: 0863 bbbc 1520 cfbd c5aa 883d c101 a93c
00000220: 62aa 2b3d 6438 82be a8ff 16bd b607 d53d
00000230: 31b9 efbd 5067 2c3e d6c9 153e 7be4 fcbe
00000240: 1c8c e7bd 554d 61be 184d f23e 2d2b c43e
00000250: a9c8 9abe f08f 443e 22f4 c43d 67f0 b0bd
00000260: 191e 76be f7a3 eb3d 9f1c 4e3e 587b 71be
00000270: 73d1 52be 8b62 ba3e 2bf8 323d ad86 a33e
00000280: f1ef 11bd 8d4f 11be ddd0 033f 5239 35be
00000290: 58b4 923e 22eb 5d3e e042 1fbe c563 83bd
000002a0: 6257 2fbd 9678 523e 1c75 a73c 25c6 313d
000002b0: 8908 8abc 66ba 153c ea2f 0ebe 3869 babe
000002c0: 0019 a93e b5cd d8be 6036 2fbe 6768 dcbd
000002d0: 84cb d3bd abf0 803e 34b0 793c 5f00 98be
000002e0: 4ab5 1cbe f7e0 35be 411a cb3d 5bc3 f7bc
000002f0: f7ce 333d b4d9 03bf bac3 54bd b14d a3be
00000300: 7843 85be 8fc8 74be 0fad 3e3d 6c87 633e
00000310: 934a 13be bf97 863e 87cb cfbe 8361 933e
00000320: cff9 863e 320a a5bd 678b e13d 6de5 2abe
00000330: 23b0 233e 37c6 4abe b141 a53d 14e2 103e
00000340: e01d cf3c b3ee 81be 76ba 60bd 9281 fd3d
00000350: a6ef ca3e 4acf a9bd 7e17 993c ce46 cd3e
00000360: 91c7 8d3e 86f2 db3d dc64 873d 992c 14be
00000370: 0a17 023e daa2 a33e 74fa 493d 10b6 d03e
00000380: ab6e 63bb c003 d83d f84b a13e b267 973e
00000390: ebac 8b3e 0555 893d 5862 a53e 7d00 ffbe
000003a0: cc99 633e 6752 1dbf 12a8 343e 375f 413e
000003b0: 5475 293e 3215 10be c1b8 e3bd 0884 f93e
000003c0: 1622 3ebe 9907 bc3e 9279 403e e5eb 42be
000003d0: db77 d9be 4876 86bd 69f2 32bd bf4d 9abd
000003e0: 4c9d 87bd 1923 b03e ef50 8bbd df06 9fbe
000003f0: fed5 fe3d 36b9 6a3e 776d e73e df9d 323e
-0.012453112 -0.18800958 -0.2505356 -0.109915644 0.26395422 -0.07037662 -0.41522196 -0.23539194
-0.08033085 -0.22276141 0.22684869 0.0020833623 0.63532436 -0.10338841 -0.0442213 0.1150088
-0.23999594 0.060854763 -0.43130025 -0.14949986 -0.30371845 -0.08662001 0.385071 0.36172596
0.2703255 0.1797059 -0.086089954 0.1555508 -0.102558546 0.30067825 -0.068841934 -0.15481499
-0.3086531 -0.37118754 -0.045507856 -0.11446727 0.14215925 -0.25197515 -0.2939145 -0.07444932
-0.12768385 0.1593989 0.09620747 0.078055404 0.15914713 -0.08795438 -0.15331656 0.28024548
-0.1236639 0.0729264 -0.01390972 0.1136845 0.21090735 0.10758062 -0.29039124 0.40432355
0.13530475 -0.10328665 -0.046021447 -0.06532372 0.034797255 -0.33997285 0.548926 -0.13961759
0.18315063 0.119225025 -0.23233019 0.04391655 -0.023089968 -0.17027083 -0.07881753 0.09564144
-0.38133162 -0.04682132 -0.034965094 0.0015790054 0.18887459 0.22267129 -0.33242902 -0.003725165
-0.2555421 0.13092135 0.10177182 0.110569514 0.13237831 -0.113141336 -0.43127626 -0.036900196
-0.3414952 -0.15940164 -0.2396702 -0.37048155 0.0707991 -0.4362794 0.25665405 0.19638819
-0.18475822 0.0029922142 -0.043674134 -0.3672384 -0.2757726 0.059443694 0.17327859 -0.27855766
-0.13207208 -0.24162126 0.05475774 0.178365 0.09975421 0.24290216 -0.18247391 -0.12111116
-0.122707434 0.1362732 0.32288253 0.028353332 0.24817798 0.04260656 -0.17119573 0.0077142552
0.09171364 -0.052643206 0.17748776 0.045024075 0.21173488 -0.2517443 -0.21083578 -0.47978404
0.3052876 -0.050615393 -0.22979693 -0.11116984 -0.02287437 -0.10113541 0.06673197 0.02063072
0.041910537 -0.25433648 -0.036864907 0.10401861 -0.11705244 0.16836286 0.14627776 -0.49393067
-0.113060206 -0.22002156 0.47324443 0.3831419 -0.30231217 0.19195533 0.09616877 -0.08639603
-0.24034919 0.11505883 0.20128106 -0.23582208 -0.20587711 0.36403307 0.043693703 0.31938687
-0.035629217 -0.14190502 0.51490575 -0.17697647 0.28653216 0.21671727 -0.15552855 -0.06415514
-0.042807944 0.20553812 0.020441584 0.043401856 -0.016849773 0.009138679 -0.13885465 -0.364084
0.33026886 -0.42344442 -0.17110586 -0.10762101 -0.10341552 0.25183615 0.015239764 -0.29687783
-0.15303531 -0.17761599 0.09917117 -0.03024452 0.04389855 -0.51504064 -0.051944472 -0.3189521
-0.26028037 -0.23904632 0.04655176 0.22219628 -0.14383917 0.26287648 -0.40584967 0.28785333
0.26362464 -0.08058585 0.11012917 -0.16689081 0.1598516 -0.19802175 0.0806917 0.14148742
0.0252828 -0.25377426 -0.054865323 0.12378229 0.39635962 -0.082914904 0.01868796 0.40093082
0.2769132 0.10739617 0.06611034 -0.14470138 0.12704101 0.31960183 0.049311116 0.40763903
-0.0034703414 0.1054759 0.31503272 0.295713 0.27280363 0.06705669 0.32301593 -0.4980506
0.22226638 -0.6145386 0.17642239 0.18883978 0.16548663 -0.14070585 -0.111192234 0.48733544
-0.1856769 0.36724547 0.18796375 -0.19035299 -0.42474255 -0.06565529 -0.04368821 -0.0753436
-0.06621799 0.34401777 -0.06802546 -0.3105993 0.124431595 0.22922215 0.45200703 0.17443036

output.weight f4 [4, 256]
00000000: 0d88 263d ad3f 0d3d 65b5 57bd 77cd ecbd
00000010: 8139 cd3d 948f 14bd 7fcc a13d 68e5 e4bd
00000020: cdd3 133f 516e e13e 8863 ffbd dd18 f5be
00000030: 5696 a03e d3b7 c4be 106f 143d 237e 51bb
00000040: 8a58 4bbe 181a 26bd 2a4d a6be 1da9 f33d
00000050: f1e2 81bd f169 59bd fa2b 0dbe 4f17 f83d
00000060: 9dbe c23c d0e7 89bd 4487 1cbd 2c13 3cbd
00000070: ddb5 0f3d c9b0 a13c 3295 f93c c7cc fabe
00000080: 77ac 77be aee7 bcc0 a2b3 1e3d 26d8 24bd
00000090: a934 a43d f6d9 da3c 8070 3dbe a9ed f0bc
000000a0: a9ba 973e 32a3 e83a 724d 4a3d a23f 0f3d
000000b0: c962 383f 4b1e 0abc aa20 283f 5a88 943e
000000c0: 5540 07bd f5b1 ba3b 6c32 c3bd e47a f6bd
000000d0: ca2c aabd 209c 3fb9 1658 a53d 8170 7dbe
000000e0: 6823 a63b 1933 b9bd c83e 04bd ebb3 363d
000000f0: 639d 143f 4749 31be 66d6 e83d cd45 473c
00000100: 5dac 31bf 5c8e 433e 669a 11bd d297 683a
00000110: e142 4fbd 1233 133d f8c2 8e3a ff87 333e
00000120: ef51 9d3c ada5 c83d c3bf 22bb 33f0 25bf
00000130: a989 873d a65b 37bc 13ee b43c 37d9 753d
00000140: 3484 84be 867e b5bd 682d debd 6c18 08bf
00000150: 524e 80be f58a a3bd c78f 9c3e 35d3 5cbd
00000160: 4951 143e ac76 a6ba 565c 76be dc44 2dbf
00000170: bb8e ef3d b3a2 0abd c8a7 c23e 43bc 133d
00000180: 96a9 d43a ed7e b03d e2c8 94bc 986e 7fbd
00000190: 98b2 043d a92c 1f3f fc58 11be 8b17 693e
000001a0: 0e10 27be 258f 583e 993f 63bf e457 263f
000001b0: 16b4 3aba 1b1c 3a3e f20c 48c0 db1f f3bf
000001c0: 77c6 563d e54e 403d 2068 213e 3a6e 0dbd
000001d0: afac a53e d71c db3c 4ca0 993d d683 8b3d
000001e0: d9ae 483f e7bf 983d bbec 1c3d 5368 063f
000001f0: 87a7 213d 01fe fc3d 4aef 9bc0 4ed6 903f
00000200: c678 e6bd 5fbc b33e 0e0d 123f e9ea 553d
00000210: 0e31 5a3c 04f3 703d 95ef dfbb 12d1 5cbe
00000220: 4da1 c23e 4f65 173e 9e82 84be c1f3 d13c
00000230: 9be3 1b3d ceba e13d cd14 2d3e e6c6 b93e
00000240: fdd4 503d 0437 8ebe 2bf4 94be 4535 19be
00000250: 9d62 833d 14e6 263e e84d dc3c 0559 ffbd
00000260: 5516 593c bff5 d83e 5981 883d 5a45 303c
00000270: 2250 abbd ae12 3d3e d030 7d3d 4253 bf3e
00000280: a9cd 063e 788c 9dbd 671d 4cbe 16ca c4bd
00000290: bb7c 3fbd 6a00 153c 0eb2 283e 62dd d43d
000002a0: 0927 e83c dc82 b0bd 4e88 41bc c2c6 c3bf
000002b0: f21d 79be 8782 3340 6a64 7a3d 8a2b 97be
000002c0: 1b8a 22be 68d3 14be 1e7d cb3d 5356 3c3f
000002d0: 346a 15bd 47a8 683e 8c83 6c3c 8194 fabd
000002e0: c7e9 8bbe 4ee5 85be bb78 b0bd b72e b2bc
000002f0: 35a9 de3c bca1 27be 2c68 a23c bb74 793e
00000300: 5cce 27bd 8794 06be 91f5 403e 46b8 8d3e
00000310: c3fc 0c3d 5d3a 90bd 6956 e7bb f371 01bd
00000320: 29f7 e23d 8231 2fbe e61a 05be 6055 313d
00000330: de73 6b3b c348 173e aafb 713d c496 e8bd
00000340: de10 60bd 7c60 ee3c 6744 c23d 9b34 703d
00000350: 40bd 70bc 4723 04bd a182 b0bc 2362 e0bc
00000360: 3fd1 843c 06c8 fb3c d527 123e 976d cf3c
00000370: 12ab 973d fd66 98bc 9833 523f 336e 273e
00000380: c8f8 0e3b bc62 c9bd 5389 1c3e 13be c23d
00000390: e78e a2be 3839 c5bd 8003 6f3e a3a7 55be
000003a0: ea21 dd3e 46a2 b8bb 40bd f3bc e7d5 a2bc
000003b0: 2e6d f83d f46f ccbc c617 bb3c 4053 ddbd
000003c0: f52b 1ebd e7d4 333d 13d1 81bc d7b3 c93d
000003d0: d66e 48bd 5e81 a8be ceac 94bf 61a5 f43c
000003e0: 40d2 bf3d e417 9d3c e9b9 b3bd bbce 2c3e
000003f0: 187f 753c e39d a5bc 1cae 383c c253 c7bd
0.040657092 0.034484554 -0.052663226 -0.11562627 0.100207336 -0.03626974 0.07900333 -0.11176568
0.5774506 0.44029477 -0.12470156 -0.47870532 0.31364697 -0.38421497 0.03623873 -0.0031966052
-0.19857994 -0.04055223 -0.32480747 0.1189749 -0.06342114 -0.05307955 -0.13786307 0.12113821
0.023772532 -0.06733668 -0.038214937 -0.04591672 0.035085548 0.019737618 0.03046665 -0.48984358
-0.24186884 -5.903281 0.03874553 -0.040245198 0.08017857 0.02671526 -0.18499947 -0.0294102
0.29634598 0.0017748831 0.049390264 0.034972794 0.72025734 -0.008430074 0.6567484 0.29010278
-0.033020336 0.0056974837 -0.095311016 -0.12035158 -0.08309324 -0.0001827334 0.08073442 -0.24749948
0.0050701387 -0.09042949 -0.032286435 0.044605177 0.58052653 -0.1731311 0.11369018 0.012162638
-0.6940363 0.19097275 -0.035547636 0.00088727206 -0.05060089 0.035937376 0.0010891845 0.17532347
0.019204108 0.09797225 -0.0024833537 -0.6481964 0.066180535 -0.011191284 0.022086179 0.060021605
-0.25882113 -0.08862023 -0.10848504 -0.53162265 -0.25059754 -0.07985488 0.30578443 -0.05391236
0.14484133 -0.0012700162 -0.24058661 -0.67683196 0.116971456 -0.03384657 0.38018632 0.036068212
0.0016224857 0.08617959 -0.018162195 -0.06236133 0.032396883 0.6217752 -0.14194101 0.22762887
-0.16314718 0.21148355 -0.8876892 0.6497786 -0.0007122172 0.18174784 -3.12579 -1.8994097
0.052435365 0.04695024 0.15762377 -0.03452895 0.3235831 0.02674715 0.07501277 0.06812255
0.78391796 0.074584775 0.0383117 0.52502936 0.039466407 0.12353135 -4.87296 1.1315401
-0.112535045 0.35104653 0.5705117 0.05222598 0.01331736 0.058825508 -0.0068339803 -0.21564129
0.38013688 0.1478474 -0.25880903 0.025628926 0.03805886 0.11021958 0.16902466 0.3628456
0.05098437 -0.2777635 -0.29092535 -0.14961727 0.06415293 0.16298705 0.026892617 -0.12468151
0.013249953 0.4237499 0.06665296 0.010758722 -0.083648935 0.18464157 0.06181413 0.37368208
0.1316439 -0.07692808 -0.19933091 -0.09608857 -0.04674981 0.009094337 0.16474172 0.10393788
0.028338926 -0.086187094 -0.011812283 -1.5295031 -0.2432783 2.8048418 0.06113092 -0.29525405
-0.15872996 -0.1453377 0.099359736 0.7356922 -0.036478236 0.22720443 0.01443566 -0.12235356
-0.27326795 -0.26151508 -0.086167775 -0.021750791 0.027180294 -0.1637029 0.019825064 0.24360935
-0.040968284 -0.13142596 0.18843676 0.27679652 0.03442074 -0.07042382 -0.0070598614 -0.03160281
0.11082298 -0.1710873 -0.12998542 0.04329431 0.0035927217 0.1477385 0.059077896 -0.11356881
-0.054703586 0.029098742 0.09485703 0.05864392 -0.014693558 -0.032260206 -0.021546664 -0.027390545
0.016213058 0.030735027 0.14273007 0.025320811 0.07405676 -0.018603796 0.82109976 0.16350631
0.0021815766 -0.09833285 0.1528676 0.0950891 -0.3174965 -0.09630054 0.23341179 -0.2086473
0.43189937 -0.005634579 -0.029753327 -0.019877387 0.121301994 -0.024955727 0.022838484 -0.10806894
-0.03861614 0.04390421 -0.015846765 0.09848755 -0.048933826 -0.329112 -1.1615236 0.029864015
0.09366274 0.019176431 -0.08775694 0.16875736 0.014983915 -0.020216888 0.01127198 -0.097327724

output.bias f4 [4]
00000000: 638a edbb 5573 7fbb c239 cdb9 3460 00bb
-0.007249163 -0.0038978655 -0.0003914368 -0.0019588592
