scripts/agent_weights.pth (torch, 572495 bytes, 8 tensors)

fc1.weight f4 [256, 37]
000000 39 f1 d2 3d e3 82 b6 3d 45 05 65 bf 8f 44 bf 3d
       0.10299916 0.089116834 -0.89461166 0.093392484
000010 1f 2a 05 3d d4 95 63 bf d9 61 48 bd e4 9e 90 3b
       0.032510873 -0.88900495 -0.04892144 0.0044134725
000020 f7 eb c3 bc 39 dd 45 3f 66 30 56 3b 1a 5e 30 3c
       -0.023916228 0.77290684 0.0032682656 0.010764623
000030 09 78 04 bb 79 a4 75 3d 1a fd 7f ba 59 a9 65 bc
       -0.0020213148 0.059971306 -0.0009765193 -0.014017426
000040 45 9c 3f bd d7 ab c2 3c 7e a2 26 bc 12 8e fc bd
       -0.04677989 0.02376358 -0.010170577 -0.12331785
000050 48 d8 ac bd e9 4c 72 3f 2d 42 d2 bc 7f 20 1f 3c
       -0.0843969 0.94648606 -0.02566632 0.0097123375
000060 7f 5d 4c bd e6 3e d5 bd fc 28 fa 3c 81 ea 1e bb
       -0.049893852 -0.104123875 0.030537121 -0.0024248662
000070 17 60 8c 3b ac 34 44 3d e4 3a 37 3d 90 0e 91 bd
       0.0042839157 0.047901794 0.044733897 -0.07082856
000080 ba 9a ea bc 31 0b a9 be 0f e3 07 3e 43 cb 66 bd
       -0.028638232 -0.3301635 0.1327021 -0.05634619
000090 96 0a 0d 3d 90 d2 5b be 28 90 3e 3e 58 86 a0 bf
       0.034433924 -0.21467042 0.18609679 -1.2540998
0000a0 c5 d4 34 3d b3 5f 86 3d 93 c8 46 be c7 10 0f 3e
       0.044148225 0.06561222 -0.1941245 0.13971244
0000b0 25 a2 c1 3c d2 c9 6c 3c 7c 19 5e 3f da 2f a1 3b
       0.023636887 0.014452415 0.86757636 0.0049190344
0000c0 a7 2b e2 3c 5e a2 54 bd 9e e5 2e 3d 18 54 99 3d
       0.027608706 -0.051912658 0.04269945 0.07486743
0000d0 a2 81 5a 3d 3c 81 62 38 2a f9 5a ba e2 05 05 3d
       0.053346284 5.4002958e-05 -0.00083531684 0.032476313
0000e0 3c 03 57 3f 78 21 d5 be 24 e2 85 bf 3a a9 be bc
       0.8398931 -0.41627097 -1.0459638 -0.023274053
0000f0 03 8c 0a bb 6b b6 14 3d 6f 67 f8 3d 06 69 e2 bd
       -0.0021140582 0.03630678 0.121291034 -0.11055188
000100 2f 79 16 3e db 85 04 bd c7 9c de bc a0 b0 f3 ba
       0.14694665 -0.032354217 -0.027174367 -0.0018592067
000110 91 a0 fd 3c fd a5 37 3d ac 65 39 be e4 b9 bb be
       0.030960353 0.044836033 -0.18105191 -0.3666526
000120 bc 59 cc 3c c3 42 a9 be 46 7c 65 bf 42 72 b9 be
       0.024945132 -0.33058748 -0.8964275 -0.36219984
000130 7d 5a 9b 3e 3a 8a 6d bc 6a d8 6b 3d 23 91 09 3c
       0.30342475 -0.014498288 0.057579435 0.00839642
000140 6a 48 7f 3d 95 0f f8 be 8e c4 86 bd a3 b8 22 bf
       0.06232492 -0.48449388 -0.065804586 -0.63562983
000150 3f f3 af 3c da 4a 69 3c 0d fd 75 bc 20 19 12 3c
       0.021478293 0.014239037 -0.015013945 0.008917123
000160 fb 24 e8 3c ff 0e da 3c 6c 09 22 bd e3 e5 d0 bc
       0.028337946 0.026618479 -0.039559767 -0.025500244
000170 3f 39 5d 3c fa 4d 12 40 7b 79 0b 3f 6b a9 2a bf
       0.013502418 2.2860093 0.5448224 -0.6666476
000180 f1 48 85 bd e1 67 c9 3c 68 c8 f5 bc 74 d6 8d 3e
       -0.06508053 0.024585666 -0.030002788 0.27702677
000190 49 ef 11 3e 98 3b 28 bc 99 26 d9 bb fb 17 a9 bd
       0.14251436 -0.0102681145 -0.0066269157 -0.08256527
0001a0 d6 fc 14 3b 4f df a9 3e a1 58 97 3e 92 d9 af 3e
       0.002273371 0.33178183 0.29559806 0.3434568
0001b0 af 4e f0 be fd 64 a8 be 70 aa ed be 69 59 84 bc
       -0.4693503 -0.32889548 -0.46419096 -0.016155915
0001c0 9f e0 cc bd 66 f2 55 3e 6c 7f 3c 3e c3 0d 74 3c
       -0.100037806 0.20893249 0.18407983 0.014895859
0001d0 9c de 42 bf ec 13 46 bc 55 d3 87 bc d4 49 96 3c
       -0.76120925 -0.012089711 -0.016580263 0.01834575
0001e0 3d 4c 91 3e 35 d1 b9 3b 6b dd 03 3d 3c 23 c4 ba
       0.28378478 0.0056706914 0.032193583 -0.0014964114
0001f0 de a9 b0 3d 62 46 30 bb 5a 8a 34 3d 2c 73 55 bc
       0.086261496 -0.002689742 0.044077255 -0.013027947
000200 cd 4e 85 bd c0 69 15 3c 6c fc b4 3d cc e4 39 3e
       -0.06509171 0.009119451 0.08837208 0.18153685
000210 b0 79 05 c0 2d 39 f6 bc 87 3a 69 3c c9 7d 50 3d
       -2.0855522 -0.03005656 0.014235145 0.050901208
000220 2e e6 5d bd dd 90 3a 3d 77 e5 4d 3e 25 f3 91 bc
       -0.054174595 0.04554831 0.20107065 -0.017816136
000230 d8 73 a1 bc c3 5f d0 3c 56 bc b2 3d cf e6 6a bc
       -0.019708559 0.025436288 0.087273285 -0.014337256
000240 13 b7 0c be 0f e2 1f bd cb 95 ad bd 0f a0 86 be
       -0.13741712 -0.039033946 -0.08475836 -0.2629399
000250 5a c1 14 be ba 08 fc 3d 07 ed 25 3e 15 72 aa 3b
       -0.14526883 0.12306352 0.162037 0.005201588
000260 05 ef a6 bd 01 2a 97 3d 7a 58 3f bd 0d 61 4d be
       -0.08151058 0.073810585 -0.046715237 -0.20056553
000270 ef 10 1a 3e 0d 68 18 3f f2 ae b0 bc 0f dd 70 bb
       0.15045522 0.5953377 -0.021567795 -0.0036752855
000280 b7 c7 b5 3a bb 47 73 bf 75 ab e1 3c 4a be ee 3b
       0.0013868724 -0.95031327 0.027547577 0.007285868
000290 d7 2b b5 3c c7 5b a4 bc 1d 37 05 3d 37 23 3b 3e
       0.022115631 -0.020063294 0.032523263 0.18275152
0002a0 1d 47 62 be a4 c3 19 bf 5a d1 8a 3d f0 ad 42 bc
       -0.2209744 -0.6006415 0.06778212 -0.01188229
0002b0 c9 04 f6 3c 0a 1f 41 3d fc bc 38 bb 08 b9 dd 3c
       0.030031579 0.04714874 -0.0028188815 0.027065769
0002c0 81 27 9f 3b 70 c6 11 3d 74 60 c0 3c 40 d7 05 3d
       0.004857004 0.035589635 0.023483492 0.03267598
0002d0 25 43 17 be e3 41 49 bf c9 e9 5f 3e ab d2 dd 3d
       -0.14771707 -0.7861616 0.21866526 0.10831197
0002e0 80 a5 0d be 40 2c 02 3f 41 77 05 3e 79 12 a2 be
       -0.13832664 0.5084877 0.13033773 -0.3165472
0002f0 8c 27 e6 3d 99 69 1e 3c fc f4 79 bd e9 a3 03 bf
       0.11238012 0.009668731 -0.06102465 -0.5142198
000300 b0 b9 fd 3e 6e 75 7d bd 96 6d b6 be 76 6f 59 3c
       0.4955573 -0.061879568 -0.35630482 0.013271203
000310 91 11 3c bb 13 0d 4b 3d 8e a4 13 3c 97 83 c4 bb
       -0.0028696994 0.049573015 0.009011401 -0.005997132
000320 96 34 43 3c 1d 09 82 3c 40 b3 1c bb 72 ce 24 3c
       0.011914393 0.015873486 -0.0023910552 0.010058986
000330 c3 82 c2 bf 0b 90 96 bd 6d a7 b2 3f 07 92 01 bd
       -1.5196155 -0.07351693 1.3957344 -0.031633403
000340 1c 1b c7 bb 5b 01 bd 3c 86 44 89 bd 15 bb 3b 3c
       -0.0060762297 0.023071935 -0.06702523 0.011458178
000350 5b 2e d6 3d c7 cb 65 3b fa 57 8a 3d 44 cb ad bb
       0.1045806 0.0035064088 0.067550614 -0.005303772
000360 1a 2e fd be 1b 08 f5 bc b9 8e 23 bf da 70 7c 3f
       -0.49449235 -0.029911092 -0.6388965 0.986097
000370 75 dc d5 3c 52 81 44 bf e8 b2 9a be 0a 0f 48 bf
       0.026106099 -0.7675983 -0.3021462 -0.7814795
000380 54 90 ef 3e 36 1d ba 3c de 5b ae 3d 0c 26 7c 3e
       0.467898 0.022719007 0.08513616 0.24623889
000390 ac 78 0b 3e 48 be 78 3d 36 6e 44 be 9a fd d1 be
       0.13620251 0.06072834 -0.19182667 -0.41013795
0003a0 bc 9a 85 bc 63 09 c1 3c a3 09 22 bd 2f b8 02 be
       -0.016309135 0.023564046 -0.03955997 -0.12765573
0003b0 07 f4 46 be 13 31 18 be a6 ea 2c 3c 6c b1 28 3c
       -0.19429027 -0.1486247 0.010553991 0.010296207
0003c0 69 13 a0 bd d0 a8 45 3e 5c 31 5f 3f ed fc 57 c0
       -0.07816202 0.19302678 0.8718469 -3.3748124
0003d0 dc 79 e5 3d a8 c3 18 bc 02 aa b3 3d 38 98 ab 3d
       0.112048835 -0.009323992 0.08772661 0.08378643
0003e0 4e 80 e7 bd f7 a4 2b bd 39 26 00 bd ca c6 47 bd
       -0.11303769 -0.04190537 -0.031286452 -0.048773564
0003f0 bc 8b ee bd 53 b4 6a be 2a 3f b5 3e a3 b3 a2 bf
       -0.11647746 -0.2292035 0.35399753 -1.2711071

fc1.bias f4 [256]
000000 77 be 11 bf 26 69 84 bf de 5a 48 bf 0e 36 68 3e
       -0.5693125 -1.0344589 -0.7826365 0.2267687
000010 d7 ff 41 c0 d4 67 0f bf 94 f3 8d bf 6b 3a 7d bf
       -3.0312402 -0.56017804 -1.1089959 -0.98917264
000020 70 7b 97 3e ad 97 7e bf 7a 18 e3 bf ec ea 1b be
       0.29586363 -0.9945019 -1.7741845 -0.15226334
000030 98 d8 3a be 6d 1d bb be fc db 10 3e cf a7 17 bf
       -0.18246686 -0.36545888 0.14146417 -0.5924043
000040 39 47 cb bf c2 37 ba bd 63 c4 15 c0 2f 0c 33 bf
       -1.588111 -0.09092666 -2.3401115 -0.69940466
000050 f8 bf 9f be 44 ba fe be df a5 6b bf 34 9e 12 c0
       -0.31201148 -0.49751484 -0.92049974 -2.290906
000060 72 f3 a0 bf 23 9c a6 be 42 77 5c 3d 30 62 d6 3b
       -1.2574294 -0.32540998 0.05382467 0.0065424666
000070 ff d9 04 be 8b 2f cd 3b 67 42 07 c0 a0 b4 3d c0
       -0.12973784 0.006261771 -2.1134279 -2.9641495
000080 af 61 c1 bc 03 76 7f bf 94 a9 5e 3c 1b 7f 96 be
       -0.02360615 -0.99789447 0.013590235 -0.2939385
000090 17 b3 29 c0 43 4d e3 be 45 a9 0f 3f 1e 4b 8d bf
       -2.6515558 -0.44394884 0.5611766 -1.1038549
0000a0 d5 53 4d bf 8d 1d 5a 3f 1b f1 b5 bf 7b 9c 3b bf
       -0.8020604 0.8520134 -1.4214205 -0.73285645
0000b0 25 56 78 bf 72 c0 61 3e 48 5b 82 bf 49 59 45 3f
       -0.97006446 0.22046068 -1.0184107 0.77089363
0000c0 94 45 29 3d 33 9d 71 be b2 f5 e1 3d e8 92 eb bf
       0.04132612 -0.23595123 0.11033191 -1.8404207
0000d0 e3 44 df bf 02 b6 5c bf 71 bd 43 be 70 18 b5 bf
       -1.7442898 -0.8621522 -0.19115235 -1.4148083
0000e0 c1 00 2d bf 94 8e 53 bf 80 96 74 3e 2b 95 02 40
       -0.67579275 -0.8263943 0.23885536 2.0403545
0000f0 69 30 cf bf f1 f1 f7 3e b4 e4 8c 3d 27 29 6d bf
       -1.6186649 0.48426774 0.06879559 -0.9264092
000100 ae e8 7f bf a3 73 a7 bf 83 60 11 c0 d7 96 4e bf
       -0.99964416 -1.3082165 -2.2715156 -0.80698913
000110 64 8e e0 be 9e e4 6f bf 17 ee fa bf f9 c4 78 be
       -0.43858635 -0.9370822 -1.9603909 -0.24293889
000120 1f b4 80 bf 54 52 0e bf 50 09 9d 3e aa ce 56 be
       -1.0054969 -0.5559437 0.30671167 -0.20977274
000130 06 2f 35 be 20 c4 4b 3e ff 6e 06 be 99 56 c7 bf
       -0.1769372 0.19899035 -0.13128279 -1.5573303
000140 ed ee 51 bf f0 da 3b bf be d8 44 bf 10 29 f8 3e
       -0.82005197 -0.7338095 -0.7689322 0.48468828
000150 62 f1 1b be 8b d7 04 bf 01 d1 c9 bd ca d0 8b bf
       -0.15228799 -0.5189139 -0.098543175 -1.0923092
000160 0d db b1 be 04 47 a9 bf 3d 44 bd be 8b ab 61 bf
       -0.34737435 -1.3224797 -0.36966124 -0.8815238
000170 9e e8 ea bf 34 61 ec bb 22 da b9 bf e0 e5 98 bf
       -1.8352239 -0.007213736 -1.4519694 -1.1945152
000180 36 b5 c6 bf 63 6c 87 bf 0a 38 84 bb 8f 25 06 bf
       -1.5524051 -1.0579952 -0.0040350007 -0.5240106
000190 ee 7b c4 bf 9f 56 8e bf ee da 2c bf 9c 5d 8b bf
       -1.535032 -1.1120185 -0.6752156 -1.0887942
0001a0 3f 66 f0 3e ba 1a 34 3d 29 39 00 c0 e5 87 89 bf
       0.46953008 0.0439708 -2.0034888 -1.0744597
0001b0 e3 1b 1c bf 5d 0a b1 bf e7 93 fc be 7c 03 e1 be
       -0.6098005 -1.3831288 -0.4933159 -0.4394797
0001c0 5c d0 8c be db fe 2d bf 66 1c d7 be 11 c9 cc 3b
       -0.27502716 -0.67967004 -0.42013854 0.006249555
0001d0 5b ac fd 3e 56 4c 01 be e8 a2 d6 be 9e 98 91 be
       0.4954556 -0.12626776 -0.41921163 -0.2843675
0001e0 43 fc a6 bf 37 88 a5 bf 1b 44 1f be ab ba 1d bf
       -1.3045734 -1.2932194 -0.15553324 -0.6161296
0001f0 ef 9a 01 bf e9 eb 8d bf 84 df f8 bd ac f1 b1 be
       -0.50627035 -1.1087619 -0.12152007 -0.34754694
000200 cf 77 81 bf 28 de 9a be 6e e8 0f c0 15 d6 0d be
       -1.0114688 -0.30247617 -2.2485614 -0.13851197
000210 d8 4c fe bf e6 2c e5 be 46 fb 04 c0 eb 21 76 be
       -1.9867201 -0.44760817 -2.0778365 -0.24036376
000220 58 80 4d bf f2 35 29 be dd 22 54 bc ca e4 dc bf
       -0.8027396 -0.16524485 -0.012947765 -1.7257321
000230 11 95 8f bf 5a a0 77 bf b6 ea 59 3e 96 7a 48 bf
       -1.1217366 -0.9672905 0.21280941 -0.7831205
000240 1a 39 88 bf 34 a5 09 bf 89 68 f9 3d 41 b4 1f bf
       -1.0642426 -0.53767705 0.121781416 -0.6238442
000250 28 00 88 bf 57 6a 81 bf 41 67 39 c0 fb 79 0d bf
       -1.0625048 -1.0110577 -2.896927 -0.5526425
000260 6a 03 37 c0 55 e8 a8 bd 5b 2b 59 bf ff f0 2f bf
       -2.8595834 -0.08247439 -0.8483178 -0.68727106
000270 a8 bd 62 bf 01 ae 28 be 4d cf 50 3f c9 26 76 bf
       -0.8857064 -0.16472627 0.81566316 -0.9615293
000280 0a 53 b5 bd e4 06 3c bf 3a ad 2d bf 1a 83 91 3c
       -0.08853729 -0.73448014 -0.6784245 0.01776271
000290 14 51 b1 bf f3 91 88 bf 74 8d 15 c0 49 14 01 bf
       -1.3852868 -1.066954 -2.3367586 -0.5042158
0002a0 ea aa eb be 9e 0c 68 3f b8 fb ad 3e a8 cf 85 bd
       -0.46028835 0.9064425 0.3398111 -0.06533748
0002b0 38 0b c7 bd 94 91 50 bf 06 e7 13 bf 18 e4 6a bf
       -0.09718937 -0.81472135 -0.5777439 -0.91754293
0002c0 b6 b2 2d bd 85 1b 1d bf 6c 21 44 bf 0a b9 e6 bd
       -0.04240676 -0.61370116 -0.766135 -0.11265762
0002d0 41 db 3d bf 48 37 89 bf 8b bf 9d bf 4d c9 80 bf
       -0.7416268 -1.0719995 -1.2324079 -1.0061432
0002e0 38 1e 4f bf 2f 62 4f be 7e f9 89 3d 54 98 4b bf
       -0.80905485 -0.20252298 0.0673704 -0.7952931
0002f0 72 ff 1c be b7 42 8d bf 6e 1e 75 be c8 5a ce be
       -0.1533182 -1.1035985 -0.23937389 -0.40303636
000300 00 30 3c bf a7 8d 42 bf e2 b0 a2 bc 3b d5 e0 bc
       -0.7351074 -0.75997394 -0.019859735 -0.027445426
000310 8f 25 d3 be e8 dd de bf e2 15 6e bf 78 54 d1 be
       -0.41239592 -1.741147 -0.9300214 -0.40884757
000320 4d 78 fe 3e 2e 33 a4 3c 41 b6 0f bf 74 83 01 bf
       0.49701157 0.020043936 -0.5613747 -0.50591207
000330 b7 9b f4 be 61 0a 02 3d a6 14 3f bf 1a 57 13 c0
       -0.4777505 0.03174818 -0.7464088 -2.3021913
000340 8a de ab be 2a e8 bc bf f8 3e 86 bf 15 46 27 bf
       -0.3356822 -1.4758351 -1.0487967 -0.6534131
000350 df 03 22 bf da 6e b8 bf 6e e6 ac bf 50 bb 59 bd
       -0.63287157 -1.4408829 -1.3507822 -0.05315715
000360 72 9e 3d bf 09 a2 c8 be 99 69 fa be f2 69 85 bf
       -0.74069893 -0.39186123 -0.4890869 -1.0422957
000370 92 c1 30 3d 6e 3f ca bf 9f ff 57 3c c3 5a 49 bf
       0.043153353 -1.5800607 0.013183503 -0.78654116
000380 a5 aa 3a bf b3 c5 f5 bf a3 d8 02 c0 a4 16 97 3e
       -0.7291663 -1.9200958 -2.0444725 0.2950946
000390 1b 8d cc bf bc 40 96 3f f2 a3 f5 be 7c 74 9d bb
       -1.5980562 1.1738505 -0.47976643 -0.004805146
0003a0 0d f3 4c be ad de 7c be 42 5d 58 be 14 e2 42 be
       -0.20014592 -0.24694319 -0.21129325 -0.19031554
0003b0 20 55 a8 be af 5b 68 bf 72 92 03 c0 8c 00 eb bf
       -0.32877445 -0.907649 -2.0558133 -1.8359542
0003c0 61 2e 4f bf d2 80 33 bf df 79 a6 bf 45 e2 db bf
       -0.80930144 -0.7011844 -1.3005942 -1.7178427
0003d0 53 42 03 bf a8 08 90 be 1f 9a fb be 1d e2 2b bf
       -0.5127308 -0.28131604 -0.49141023 -0.67141896
0003e0 5f 48 3b bf c9 73 72 bf 2f 54 e1 bf 06 8c c2 3c
       -0.73157305 -0.94707924 -1.7603816 0.023748409
0003f0 8e 04 11 3e b8 cf 96 bc 0a 49 7d bf 4f 10 4d bf
       0.14161894 -0.018409595 -0.98939574 -0.8010301

fc2.weight f4 [256, 256]
000000 6f 91 af bd 96 8d 08 3f 0a 5f 43 3f 12 ca c2 3d
       -0.08572661 0.53341043 0.76316893 0.09511198
000010 20 45 2e 3e 45 6a a5 be bd e3 a2 3e b1 22 88 be
       0.17018557 -0.3230764 0.31814376 -0.26588967
000020 ec 1a 66 bd 22 7d 28 bf 0d 1f 0d be 5a a2 e6 3d
       -0.05617802 -0.6581594 -0.13781376 0.11261435
000030 4b d8 26 c0 49 41 15 3c ca e6 62 3c 25 71 90 3c
       -2.6069515 0.0091098035 0.01384897 0.017632077
000040 e4 f1 ae be c5 17 05 be e9 69 a8 3d 1f fd a8 be
       -0.34168923 -0.12997349 0.08223326 -0.33005616
000050 4a 1b 03 3f 2b 20 ac be e0 11 1c 3e 48 a4 b6 be
       0.51213515 -0.33618292 0.15241194 -0.35672212
000060 9a d8 aa 3d c5 90 5f bc 25 ef 0b 3f b6 be 77 be
       0.08342095 -0.013645356 0.5466178 -0.24193844
000070 66 b1 c9 bd 25 46 9f 3e 76 6e c6 3d 0e d8 8d be
       -0.09848289 0.31108204 0.096890375 -0.277039
000080 87 5d ed 3c 61 dd 29 bf 4b b6 d7 be cc 9a 0f 3f
       0.028975261 -0.6635342 -0.42131266 0.56095576
000090 7b 2b 4d bf 1f 76 0e 3e 78 41 54 3e 86 b9 b2 3e
       -0.8014447 0.13912247 0.207281 0.34907168
0000a0 7d b5 19 3f 2c 0b 81 be d2 fe e8 3e 4a 73 da bd
       0.60042554 -0.25203836 0.45506912 -0.10666521
0000b0 2e ee ee bd 75 8b b2 3e e8 ae 81 bd 37 90 f1 3e
       -0.11666523 0.34872022 -0.06332189 0.4718034
0000c0 2b f4 c6 be dd ec 12 c0 d5 d2 6c bd f6 c5 09 3f
       -0.3885816 -2.295707 -0.057818253 0.5381769
0000d0 51 f7 6a 3e 93 30 ae 3e 8a df a5 bb f7 56 5e bd
       0.22945906 0.34021434 -0.0050620483 -0.054282155
0000e0 19 84 0a be de 7e ee bc 47 29 e6 3e 75 a1 4f bd
       -0.13526954 -0.02911323 0.44953367 -0.050691087
0000f0 8b 2d 3a bd 3f ff 31 be da 35 29 bf dd c3 42 be
       -0.04545359 -0.17382525 -0.66097796 -0.19020028
000100 02 1e 9c be 52 c9 ab 3e 79 24 4f 3f 8d d7 a3 be
       -0.30491644 0.33552033 0.8091503 -0.3200039
000110 74 1b 22 3e 9f 0f 5c bf be e0 76 3f be a5 a1 3e
       0.15830785 -0.85961336 0.9643668 0.31571764
000120 14 df 81 3e f0 d4 fe 3d fc 52 11 bf 74 05 9b 3c
       0.25365508 0.12442958 -0.5676725 0.018923499
000130 f1 2e c4 bd 98 9e b5 bd f7 8e cd 3c 65 54 21 3e
       -0.09579266 -0.0886814 0.025092585 0.1575485
000140 27 de d2 bc e7 a3 84 3e 31 29 7f be 48 76 00 bf
       -0.025740696 0.25906298 -0.24918057 -0.5018048
000150 60 32 9d 3e ec 16 5f 3f 4a a0 9a be cd 93 3f 3e
       0.30702496 0.8714435 -0.30200416 0.18708725
000160 08 26 60 3d ba ff 82 3e 22 a7 91 be 89 15 e3 be
       0.05472377 0.2558573 -0.28447825 -0.44352368
000170 3b 30 0a 3f 69 12 66 bf 99 9f 35 bf 37 d6 ab be
       0.53979844 -0.8987184 -0.7094665 -0.3356187
000180 8e 0b 13 be 3c b9 42 3e fb d0 04 c0 93 48 d2 bd
       -0.14359877 0.19015974 -2.0752552 -0.10267749
000190 48 a5 69 bf 12 6f 0d bf 03 2a 94 bc e5 e3 36 be
       -0.91267824 -0.55247605 -0.018086439 -0.17860372
0001a0 a6 68 a7 be 2d 93 c5 be a6 ad 74 be 40 72 55 3e
       -0.32697028 -0.3858885 -0.23894367 0.20844364
0001b0 b1 37 36 3e 67 45 89 3f c5 b2 b1 bd f7 fa 41 bc
       0.17794682 1.0724305 -0.08676676 -0.01183962
0001c0 0d 72 79 be 49 fb 34 be 37 a1 8b 3e f6 ae c8 3c
       -0.24359913 -0.17673983 0.27271435 0.02449749
0001d0 3c af 44 3e 11 29 d7 bf e4 fb de bd 90 9f 44 3f
       0.19207472 -1.6809407 -0.10887888 0.76805973
0001e0 44 6c 37 3e 1a 30 57 bd 7f af 22 c0 cf b1 cd 3e
       0.17912394 -0.052536108 -2.5419614 0.4017472
0001f0 89 4f e1 3e 9c a7 d3 be 89 7e 15 be fd 87 30 bf
       0.44005993 -0.41338813 -0.1459905 -0.689575
000200 d9 b8 03 3f d7 62 ea bd 64 bf 22 be 56 27 dd bc
       0.5145393 -0.114446335 -0.15893322 -0.026996296
000210 d1 dc 01 3f 3d 25 16 be f4 21 d9 bd 8c e6 b1 3b
       0.50727564 -0.14662643 -0.10602179 0.0054290947
000220 39 f4 9e 3e c8 67 b8 3e 25 c1 de bd f2 e0 04 bc
       0.31045702 0.3601668 -0.10876683 -0.008110272
000230 78 cd 18 3f 0d fb d4 be a2 95 86 bf a5 49 d3 3e
       0.5968852 -0.41597787 -1.0514414 0.41267124
000240 69 e8 71 be 56 80 1f 3e 1b 8e 9f 3e 23 56 43 be
       -0.23623814 0.155763 0.31163105 -0.19075827
000250 86 81 7b 3e a5 5b ae be 71 16 d5 3c 82 b6 e8 be
       0.24561128 -0.34054294 0.026011677 -0.45451742
000260 81 f4 06 3f 73 fa 0c be ea d9 04 3e a0 60 91 3e
       0.52716833 -0.13767414 0.12973753 0.28394032
000270 bb e4 e5 3d 38 b9 89 3e ff 28 b2 3d 6e 42 64 3c
       0.112252675 0.26899123 0.08699226 0.013931854
000280 9b 32 33 3e ee 21 11 be 50 43 d8 3d 42 8a 84 bd
       0.17499773 -0.141731 0.10559714 -0.06471683
000290 a6 dd be 3c 53 96 b6 3e 46 dd 8e be 24 da 06 bf
       0.02329905 0.35661563 -0.27903193 -0.52676606
0002a0 b3 03 0e 3e fc f3 11 3f 01 42 87 3e 4c 42 fd bd
       0.13868599 0.57012916 0.26417544 -0.12366161
0002b0 c8 65 80 be f7 e3 d2 3d b3 81 0c 3f 1e 7c 76 3e
       -0.25077653 0.10297387 0.54885405 0.24070784
0002c0 ab 99 fb be f7 a8 f7 bc cc f9 eb be 68 da a3 bf
       -0.49140677 -0.030231936 -0.46089017 -1.2801027
0002d0 44 7d 44 3e 1e 09 5b be 8d 41 ae 3e e1 04 02 bc
       0.1918841 -0.21390197 0.34034386 -0.007935734
0002e0 ce 99 ce be 92 e7 3f 3d 01 9c db bd f2 19 80 3c
       -0.4035172 0.046851702 -0.10723115 0.015637372
0002f0 b3 00 fe 3d 65 c5 62 3d f8 24 27 bd 50 e6 2f 3e
       0.12402477 0.05536403 -0.04080674 0.17177701
000300 dd 6d 5c be ed 08 25 bf 0d 34 2e 3e c0 d2 d0 be
       -0.21526285 -0.64466745 0.17012043 -0.4078579
000310 3e a6 0a 3e 7e 1a e4 3d 33 cf 46 3f b9 2b 07 3e
       0.13539979 0.111378655 0.7765991 0.13200273
000320 91 c6 c4 3d 32 ea 23 be 43 7a 79 3c ff ad bd 3c
       0.09608186 -0.16007307 0.015226903 0.023154257
000330 a9 f4 9d 3d 2f dd bb 3e 83 57 8c 3d 88 2f 41 3e
       0.07712681 0.36692187 0.06852629 0.18865788
000340 a3 32 6b be e6 32 0a 3e 77 32 4e 3e 00 b4 82 3e
       -0.22968535 0.13495979 0.20136438 0.25527954
000350 6b 0a 0f 3f 18 56 6e be 1a 99 d7 be 61 2a 40 be
       0.5587527 -0.2327503 -0.42108995 -0.18766166
000360 b4 20 dd be 5b e6 8b be 38 36 79 bd ce 44 c1 3e
       -0.43189013 -0.27324185 -0.060842723 0.37747806
000370 3f 91 f7 3d 94 0e 33 bf 98 ab 8b 3d ee 51 be 3e
       0.1208825 -0.6994412 0.06819838 0.37171882
000380 c8 de 36 bf 71 32 fd 3e be b4 0b bf 36 c2 af bc
       -0.7143369 0.49452546 -0.54572666 -0.021454912
000390 b4 b0 86 bc 55 8c 92 3c e8 5e b1 3e f7 d8 c0 3e
       -0.01644168 0.017889181 0.3464272 0.3766553
0003a0 ba 68 b1 3d cf 59 96 be 27 78 05 3d 3c cb d9 be
       0.08662553 -0.29365394 0.03258529 -0.42537868
0003b0 64 43 03 bf 07 e2 73 be c7 a1 66 bf 14 e9 14 3f
       -0.51274705 -0.23816691 -0.900906 0.5816815
0003c0 27 f4 fb bf 56 91 3f be 0d 14 39 3d cf bd cb 3e
       -1.9683884 -0.18707785 0.045185138 0.3979325
0003d0 ff 5a 0a bf ed 2e 23 3e f6 d0 8d bd 36 39 96 3c
       -0.540451 0.1593587 -0.06924622 0.018337827
0003e0 07 bc 9a 3b 41 a4 2e be 60 e4 cc 3e 73 a2 e5 3e
       0.0047221216 -0.17054845 0.40017986 0.448505
0003f0 db 35 09 be fd c9 f8 3c f7 f9 5c be ca fc 16 3e
       -0.1339945 0.030369753 -0.21579729 0.14744869

fc2.bias f4 [256]
000000 98 96 f5 bd 64 da ae be 36 97 00 3f b3 53 8c bf
       -0.11991614 -0.34150994 0.5023073 -1.0963043
000010 ed 49 f9 3e 18 0e d7 bd 7c ef 54 be 9f e9 0e 3f
       0.48689213 -0.10500735 -0.20794481 0.5582523
000020 4d 0a 7f 3e eb 5c 70 3e c4 ed b0 bd 2b 57 c6 bd
       0.24906273 0.23472945 -0.086391 -0.09684595
000030 9a 31 01 3d b6 07 da bd 0a cf 08 3e 7e 12 c1 bd
       0.031541444 -0.10646002 0.13360229 -0.09427355
000040 23 88 c9 3e 75 24 d5 3e cc d0 6f 3f fa 36 26 bb
       0.39361677 0.41629377 0.93677974 -0.0025362358
000050 39 8f dd be b7 1d 61 3f d1 2e 62 3f b4 37 37 3f
       -0.43273333 0.87935966 0.88352686 0.7156937
000060 02 69 ce bf e9 f5 36 bd 88 18 2f bf 33 4a e5 3e
       -1.6125796 -0.044668112 -0.68396807 0.44783172
000070 56 cc 6d c0 20 0b 3f bf 24 7b 05 3f b1 a1 f4 3e
       -3.7155967 -0.7462635 0.5214102 0.4777961
000080 cf a5 19 3d 02 c4 00 c0 e3 79 d4 bd 08 f8 82 3e
       0.037511643 -2.0119634 -0.103748105 0.25579858
000090 cd 51 43 3f 46 e2 b8 bf 32 5c cb bd 9c db 04 3f
       0.76296693 -1.4444053 -0.09929694 0.518976
0000a0 a2 4d 11 3d a9 fc 04 bf 58 95 39 3e e7 02 36 3f
       0.035474427 -0.5194803 0.18123376 0.7109818
0000b0 ae b9 22 be 3d bd 25 3f 4e 0d ab bc 5c 64 4e bf
       -0.15891144 0.6474188 -0.020880368 -0.80621886
0000c0 a1 f8 8c 3f 80 98 ea be 72 dc 28 3f 0c 28 8d c0
       1.1013376 -0.45819473 0.6596137 -4.4111385
0000d0 82 4a 3f 3f 53 29 64 3e 6a 9b ca be d8 57 81 bd
       0.74723065 0.22281389 -0.39571697 -0.06315583
0000e0 74 bb 2f 3f 66 8b 03 3f 2d 03 f9 3e 74 fb 91 3f
       0.68645406 0.5138458 0.48635235 1.1404862
0000f0 f1 47 ea be 3f 79 05 3e 5c 30 5e bf dc 49 56 bf
       -0.45758012 0.13034533 -0.8679254 -0.8370645
000100 25 90 0a 3f ad 5f df 3e cc e9 96 bf df 9b b4 bd
       0.541262 0.43627682 -1.1790099 -0.088187926
000110 2c db 30 3f c9 cd 03 3e 8a 04 f6 be f0 70 cd be
       0.6908443 0.1287147 -0.48050338 -0.40125227
000120 7b 5b dc 3d 3c d1 56 bd 27 42 d7 3e ac fc f0 bd
       0.10759636 -0.052445635 0.42042658 -0.11766943
000130 a3 b5 18 c0 cb 9c 49 3f e6 6e c2 bf 9f a3 a6 3e
       -2.3860862 0.7875487 -1.5190094 0.32546708
000140 df b9 b1 3d d0 67 1f 3f 0d bf 58 be db 99 13 3f
       0.0867803 0.6226778 -0.2116663 0.5765664
000150 ca 63 c2 3f 4f d9 00 bf f1 f0 8f bd 0b 67 61 3e
       1.5186703 -0.50331587 -0.07028378 0.22011964
000160 03 35 9e 3f 8a ad 0c 3f f7 0d 9a bc 64 5d 84 bd
       1.2359928 0.549523 -0.018805487 -0.06463125
000170 60 33 df 3e a9 05 68 3e d2 b0 9a 3d 49 67 81 bf
       0.43593884 0.22658409 0.07553257 -1.0109645
000180 a0 22 16 3f 81 33 2d 3f 4d 05 12 3f d9 e6 47 3f
       0.58646584 0.67656714 0.5703934 0.7808662
000190 d2 76 06 bd 1e ff c3 bc a1 b2 31 bf 6c 98 d4 3e
       -0.03282816 -0.02392536 -0.6941319 0.4152254
0001a0 cc 85 da bd 67 d4 0b 3f 55 ef 84 3e 91 93 19 3d
       -0.10670051 0.54620975 0.25963846 0.037494246
0001b0 b7 37 ac bf da b6 bf be c8 d0 d7 be 8d eb 47 3d
       -1.3454503 -0.37444192 -0.42151475 0.048808623
0001c0 43 42 e5 3d d6 95 d3 bc c0 20 55 bd e6 45 c5 bb
       0.11194279 -0.025828283 -0.052033186 -0.0060202954
0001d0 9e d0 a7 3e 96 9c 4a 3f c5 55 1d 3f fe e1 b1 bd
       0.3277635 0.7914518 0.61459 -0.08685683
0001e0 73 33 92 bd 4f 63 0f 3e e2 bf e3 bf d3 c9 5a 3f
       -0.071387194 0.14002727 -1.7792933 0.8546421
0001f0 97 71 1e be 26 cf b9 be ba ea 31 bb b8 e0 74 3c
       -0.15473019 -0.36290854 -0.0027147965 0.014946155
000200 71 41 49 3e 9e 60 98 3e 8a 5a 64 3f e2 89 57 3e
       0.1965387 0.29761213 0.8920065 0.21048692
000210 49 bd 0d 3d af 54 e9 be a0 83 12 3f e2 d2 36 3f
       0.034604345 -0.4557242 0.57232094 0.7141553
000220 a8 c8 48 bd 9b 58 13 be 88 3c 44 c0 41 a0 8a be
       -0.049019486 -0.14389269 -3.0661945 -0.2707539
000230 9c c8 16 3e 1d 84 15 3f 87 4d e8 3e 18 f6 8f bd
       0.14724964 0.58404714 0.4537165 -0.070293605
000240 f4 aa 42 be 47 2e dd 3d 6c d1 b0 be fc ae 67 3f
       -0.19010526 0.10799842 -0.34534776 0.9050138
000250 91 57 b1 bd 23 c5 02 3f 4e 5e d4 bd 29 d1 37 bf
       -0.0865928 0.51082057 -0.1036955 -0.7180353
000260 71 40 2b 3f 56 9a 03 be 13 b7 9b 3c 6f 69 78 3e
       0.66895205 -0.12851843 0.019008195 0.2425897
000270 a0 fc 7a 3e 9e 0b 6f 3e 9e ea 53 3f da 2f 79 bf
       0.24510431 0.23344275 0.8277987 -0.9733864
000280 48 71 51 3d 5b fc 53 bd b7 8c 41 3f a9 dc 72 bd
       0.051133424 -0.051754337 0.7560534 -0.05929247
000290 43 13 11 3f d4 a9 42 3f b7 42 43 bf b3 f9 00 3d
       0.56670016 0.7604039 -0.76273674 0.03148813
0002a0 23 78 0c 3e 71 d0 9f bf f5 b0 6c 3c 58 79 ab 3f
       0.13717704 -1.2485486 0.014446487 1.3396406
0002b0 2a c2 89 bf 77 27 8c be 9b 55 9b bf d0 37 e4 3d
       -1.0762379 -0.2737386 -1.21355 0.11143458
0002c0 39 e4 01 c0 14 4b 0b bd 0b b6 e0 be fe 13 95 bf
       -2.0295546 -0.034007147 -0.43888888 -1.1646726
0002d0 8f d4 af 3e 2a 71 50 3e 35 61 48 bd 1d 1b 12 3e
       0.34341857 0.20355669 -0.04892083 0.14268155
0002e0 f3 ab 0c 3d e8 4b bb be 12 65 22 3e b9 42 65 bd
       0.03434367 -0.3658135 0.15858868 -0.055971835
0002f0 58 83 9a 3e ec 86 66 be 3b 81 8e 3e 9f 26 ad bd
       0.30178332 -0.22512406 0.2783297 -0.08454632
000300 d2 3c aa bd 9a 7c 76 3f 84 7d a0 bb 7b 0b a1 3e
       -0.08312382 0.96283877 -0.004897775 0.3145407
000310 02 61 7d 3e e9 2c 65 bf a2 d1 17 3f c9 bf 04 3f
       0.24744037 -0.8952165 0.5930425 0.5185514
000320 b0 8f 9e 3b 03 6e 0d bd 16 8e 4c c0 de 46 51 bd
       0.004838906 -0.034528743 -3.1961722 -0.051092975
000330 6d 31 8b bd a6 9e 81 3f 75 bb 28 be 27 5a 02 be
       -0.067965366 1.0126541 -0.16477759 -0.12729703
000340 f8 98 75 3f 8f 59 16 bf bc 0a 80 3f 60 bc dd bf
       0.95936537 -0.58730406 1.0003276 -1.7323112
000350 40 93 b3 3d 0a 85 26 be 28 ca cf 3e 3d 60 93 bd
       0.0876832 -0.16261688 0.4058392 -0.0719609
000360 d4 84 53 3b 7f 04 22 be d5 1c b3 3f f1 45 e7 3e
       0.0032275217 -0.15822028 1.3993174 0.4517055
000370 e9 4d 6b be 62 19 40 bd d9 9f 99 bd 17 71 cd 3e
       -0.22978939 -0.046899207 -0.07501192 0.40125343
000380 ca 67 28 3f ef 9d 01 be 5a ac 5c bf e9 ff 9f bf
       0.6578337 -0.12657903 -0.8620049 -1.2499973
000390 02 20 bc 3e 75 9f e9 3d 25 af 2c be 86 7a 4c bd
       0.3674317 0.11407367 -0.16863687 -0.049921535
0003a0 39 a0 25 3f 1e 04 d3 bf a3 f7 34 bc 54 1f a7 bd
       0.64697605 -1.6485631 -0.011045369 -0.08160272
0003b0 e9 3d 2d bf 37 48 73 3f 9b 95 05 3f 2c 98 40 bf
       -0.6767259 0.95032066 0.52181405 -0.75232196
0003c0 2b 63 6e be 2c 46 84 3e a0 a6 d5 be 8d ac 78 3e
       -0.23280017 0.25834787 -0.41728687 0.24284573
0003d0 96 d6 be 3d 1e a5 2d 3f 5d 29 3e 3e 33 08 fe bf
       0.09318273 0.67830074 0.18570466 -1.9846252
0003e0 8d 17 93 be 8c 49 4e be 85 6f a9 bd de 09 81 3f
       -0.28728905 -0.20145243 -0.08273224 1.0081136
0003f0 fd 4d a2 be ef e8 5e 3f e1 c6 6a 3f 27 ce b5 bf
       -0.31700125 0.8707418 0.91709715 -1.4203538

fc3.weight f4 [256, 256]
000000 8e 72 05 3e 91 3d ba bf af c6 31 3e 27 26 cb be
       0.1303198 -1.4550039 0.17360948 -0.39677545
000010 32 fc 53 be f5 98 06 3e 9e 0f 8f bf 11 cc 19 be
       -0.20701674 0.13144286 -1.1176641 -0.15019251
000020 31 7a 40 be 80 e2 94 be d7 98 5a bd 15 88 04 bd
       -0.18796612 -0.29079056 -0.053368416 -0.03235634
000030 79 46 bd 3e b0 21 7f 3c 6f db ae bf 18 8c 68 3c
       0.3696783 0.015571997 -1.3660716 0.014193557
000040 a7 6d e0 3d 5d 30 8b 3d 67 01 15 3f 56 69 33 bd
       0.109584145 0.06796334 0.58205265 -0.043801628
000050 80 5c fe be 7a ec 20 be d9 4d 49 3e bc 7e 12 3e
       -0.49679947 -0.15715209 0.19658603 0.14306158
000060 0d 0b e2 be fd 1b 0b bd b8 cd b4 bd 45 5a 49 3e
       -0.44149056 -0.03396224 -0.088283 0.19663341
000070 1e 1e 94 be c6 b2 de bc 4d aa b9 bd f8 4a 48 be
       -0.28929228 -0.027184855 -0.090656854 -0.19559848
000080 57 43 ac 3d f4 b1 0b c0 da fb 77 3e 55 c4 2d 3d
       0.084112816 -2.1827364 0.24217167 0.042423565
000090 e4 f9 97 bb aa 70 7f be 2d 31 5a bd 0a 82 92 3e
       -0.0046379436 -0.24945322 -0.053269554 0.28614837
0000a0 10 b2 1c 3f f5 37 a8 be d0 8a b7 be dc df f1 3d
       0.612092 -0.32855192 -0.35848093 0.11810276
0000b0 d8 b4 ec ba bc 09 9b be 2f 28 3f bc f1 17 65 3e
       -0.0018059267 -0.30280864 -0.011667295 0.22372414
0000c0 da 2e 11 3e 99 eb 53 3f 3a 69 f2 3e fe b1 79 3e
       0.14178029 0.8278137 0.47345906 0.24384305
0000d0 a0 17 66 3e f7 4f e7 be e7 16 5d bc 07 ad 10 be
       0.2246995 -0.45178196 -0.01349423 -0.14128505
0000e0 2c 0f 10 be 1c 21 42 bd c9 c9 4e bd 37 a8 a2 be
       -0.14068288 -0.047394857 -0.050485406 -0.31768963
0000f0 32 b6 a0 3e 7f 57 1d bf f6 f3 04 be 82 aa 5b 3e
       0.31389004 -0.61461633 -0.12983689 0.21451762
000100 b5 5d 23 3c 22 e4 b9 3e 44 87 df bf e6 bf 53 3c
       0.009971072 0.36306864 -1.7463155 0.01292417
000110 37 81 d0 be 6f 26 0c c0 81 49 5d bf ea 5c 15 3e
       -0.40723583 -2.1898458 -0.86440283 0.14586225
000120 ab 84 7a be 15 f4 c5 3c 81 c4 86 3e b3 10 f9 bc
       -0.24464671 0.024164239 0.26321796 -0.03040347
000130 d7 2f 46 be d4 33 e9 be c7 b9 c1 be cd 80 47 3d
       -0.19354187 -0.45547354 -0.3783705 0.04870682
000140 cd 2b eb 3d 23 69 e1 3d 12 be 74 be 0a 0d 6f 3c
       0.11482964 0.11006381 -0.23900631 0.014590511
000150 bb 1a de 3e e9 42 8c 3e 1e 9b c7 be 6b 5e 12 3e
       0.4337977 0.27394798 -0.38985533 0.1429383
000160 f8 1f b2 bf 47 16 e3 3d b0 57 da 3c 6f 96 e4 3b
       -1.3916006 0.110882334 0.02665314 0.006975941
000170 a2 87 62 bf 72 91 a9 bf ea 56 8e be 1d a5 60 bf
       -0.8848821 -1.3247511 -0.27800685 -0.8775194
000180 7c 16 68 bf f2 92 10 be c8 06 07 3e a4 2d 73 3e
       -0.9065931 -0.14118555 0.1318618 0.2374788
000190 b4 08 18 3d 04 29 1d bd 0f 78 e2 bd 19 ae fe 3e
       0.037117675 -0.038369194 -0.110580556 0.497422
0001a0 0c 24 4a bc 13 ed a7 3e 0f f2 e3 3e 89 07 06 3e
       -0.012337696 0.3279806 0.44520614 0.13088812
0001b0 9c 96 60 bd 70 26 49 be 2c 88 9a be a2 c1 89 be
       -0.054831132 -0.19643569 -0.30182016 -0.26905543
0001c0 27 aa 9b be da d1 6a 3d ed 27 dd bd 77 f9 cb 3c
       -0.30403253 0.057329036 -0.10798631 0.024899228
0001d0 7b 24 23 be 21 5a 25 be f3 dc ff 3e 6f 0c 0f bd
       -0.15931885 -0.16147663 0.49973258 -0.034923967
0001e0 05 89 5a 3d 54 20 57 bf cd dc 48 be d9 1c ac bd
       0.05335333 -0.84033704 -0.19615479 -0.0840394
0001f0 06 08 44 3e d6 51 31 bd 00 1a 6c bd c9 56 2e bc
       0.19143686 -0.043290935 -0.057641983 -0.010640808
000200 7d f3 09 bd 15 bc 14 3e 2a e8 fd bc fe 1d cd be
       -0.033679474 0.14524873 -0.030994494 -0.40061945
000210 8a a1 ac bc 6c 40 17 be ce cb c6 3e d0 c9 4c 3e
       -0.021073122 -0.14770669 0.38827366 0.1999886
000220 32 12 ea 3e e7 77 49 3d 37 01 f7 be 94 40 2d be
       0.45717007 0.049186613 -0.48243114 -0.16919166
000230 a8 93 cd 3c 31 4a 5b 3f 7e 86 2f 3e c4 1d c8 be
       0.025094822 0.8566008 0.17141148 -0.3908521
000240 52 8f a7 3d cd 1a a9 3e d4 f3 42 3d 2e d3 0c 3d
       0.08181633 0.3302826 0.047595814 0.034381084
000250 ee d9 a5 bd 4d f4 a8 be 27 c4 5a 3d c2 ee a3 be
       -0.080982074 -0.32998887 0.05340972 -0.32018095
000260 50 4f cd bd 6a 81 4f bc d5 5f 61 bd f2 86 a1 bd
       -0.10024893 -0.012665132 -0.055023033 -0.07887067
000270 39 ac 18 3c 7a a8 31 c0 13 ed dc 3e 1c 4e a6 be
       0.009318405 -2.775908 0.43149623 -0.32481468
000280 3b d7 c7 3d 2f 68 2e be 7a 5a 0b bf e1 fd 26 bd
       0.09757849 -0.1703193 -0.5443493 -0.04076946
000290 a4 d0 d4 be ff d0 e3 3e c3 3c 6e 3e a8 4b fb bd
       -0.4156543 0.4449539 0.23265366 -0.1227029
0002a0 1f bf c0 be db 3e 46 3d ee b6 16 bf 67 cc 10 3f
       -0.37645814 0.048399787 -0.5887288 0.56561893
0002b0 8c 57 05 bf 80 39 9f 3d c3 43 62 bf 61 82 3d 3e
       -0.5208671 0.07774639 -0.88384646 0.18506767
0002c0 93 3f 2e 3e 6f e6 6c 3d fc 5b b7 3b d8 92 38 3e
       0.17016439 0.057836946 0.005595682 0.18024766
0002d0 de 44 db bd cc f6 69 be 57 f1 35 3d ad 66 1a be
       -0.10706495 -0.22848052 0.044419613 -0.1507823
0002e0 3c 3a 04 be 4c 8a 23 bf 24 d6 a4 3e 59 6f 9b bb
       -0.1291284 -0.638829 0.32194626 -0.0047434983
0002f0 37 cd 73 3e 8b 80 f2 3d c3 3f 76 be e6 34 16 bd
       0.23808752 0.11840924 -0.2404776 -0.03667154
000300 8f 36 54 bd ea 69 ae 3d 9b d1 99 3e 2c b8 80 be
       -0.051809844 0.08516295 0.3004273 -0.25140512
000310 8b 4a b0 3c 95 21 a3 be bb 21 0f be b5 e2 fb 3e
       0.02151992 -0.3186156 -0.13977711 0.491964
000320 29 c7 4a 3c a3 05 b3 3c cb 46 d4 be ec e0 ea 3c
       0.012376585 0.021853274 -0.4146026 0.028671704
000330 08 57 64 bd de 2f 2d bf ac f2 1a 3c 57 38 83 bd
       -0.055747062 -0.67651165 0.009457272 -0.0640723
000340 a9 34 82 3e a8 ca 18 bf a7 c8 fb bf 9d 87 fe be
       0.25430802 -0.5968423 -1.9670609 -0.4971284
000350 7c 3b 22 be 69 06 06 bd 31 82 b5 3c 2f 3f d5 3c
       -0.15843004 -0.032720957 0.022156807 0.026031105
000360 03 53 44 be 2b a4 85 bf c5 0e 35 bf e5 89 6b be
       -0.19172291 -1.0440725 -0.7072566 -0.23001821
000370 2d 5c 7d bf 5a 6c 6c bd 04 52 80 bd a7 4c 43 3d
       -0.98968774 -0.05772052 -0.06265643 0.047680523
000380 96 85 7e bf c2 6e 27 3f 8b ee 0f bf 27 d7 0e bf
       -0.99422586 0.6540338 -0.5622336 -0.55797046
000390 93 91 6d be 28 ad 78 bf e8 56 62 bf 9c e5 f1 3c
       -0.23200063 -0.97139215 -0.8841386 0.029528432
0003a0 8b 92 8b bd 57 57 06 3f 4e 97 d5 3c 13 d4 3f bd
       -0.0681506 0.5247702 0.026073124 -0.04683311
0003b0 68 ae 29 c0 38 95 09 be f9 aa 3c 3e dc 58 a7 be
       -2.65127 -0.13435829 0.18424596 -0.32684982
0003c0 55 c1 8b bd 8a a2 a8 bd be a2 4a bf 4d 64 47 bf
       -0.068239845 -0.08234127 -0.79154575 -0.7788742
0003d0 4d 6e 66 bf 80 d2 13 3b 84 0d c1 be 5d 6e bd 3e
       -0.90012056 0.0022555888 -0.37705624 0.36998263
0003e0 66 f0 b2 be 46 1a 46 bf a2 16 cb 3e 4e 9d 99 be
       -0.34949034 -0.7738384 0.39665705 -0.30002826
0003f0 e0 0d d5 3d e5 af 9a bc 37 08 9b be 50 63 a8 3e
       0.10403037 -0.018882701 -0.30279705 0.3288827

fc3.bias f4 [256]
000000 14 7a 01 3f 0a 1a 9c 3e 5c 63 ee 3e 84 34 89 bf
       0.505769 0.30488616 0.4656018 -1.0719151
000010 8e 43 15 bf 5b a0 08 3f 41 e0 c0 3d 7a cd 3f be
       -0.58306205 0.53369683 0.09417773 -0.18730727
000020 8b 88 54 bf 7d e2 a7 be 41 e3 5e 3f 41 13 93 bf
       -0.8302085 -0.32789984 0.8706551 -1.1490251
000030 a9 4b 84 bf fb 55 0b be df f4 53 3e 83 65 c7 bf
       -1.033559 -0.13607018 0.2069888 -1.5577854
000040 81 ac a8 3e 18 59 90 bf c7 b3 f3 be 4f 12 4e 3f
       0.3294411 -1.1277189 -0.47598097 0.80496687
000050 39 63 19 bf a2 94 b9 bf 0e 18 7c 3f e9 c1 2a bf
       -0.59917027 -1.4498484 0.98474205 -0.66702133
000060 0d 5b 04 3f e7 01 00 bf 96 b1 40 be c8 d5 9c ba
       0.5170143 -0.500029 -0.18817744 -0.0011965567
000070 c8 44 38 3f b9 6b f7 be 8b 30 91 bf db a5 d1 bd
       0.7197995 -0.48324373 -1.1342939 -0.102367125
000080 5a 2a 09 3f bf 4e cc be c8 59 12 c0 6b 12 9e bf
       0.5358025 -0.39903829 -2.2867298 -1.2349371
000090 c0 04 8b bf af ea 82 bf ec fd 8f bf 1d 45 0b bf
       -1.0860825 -1.022787 -1.1249366 -0.54402333
0000a0 54 0a 23 bf 15 bc 38 bc 68 af 46 bf d0 5e 5a be
       -0.63687634 -0.011275311 -0.776114 -0.2132523
0000b0 7e 46 66 be 6b 57 d6 3d 3a 82 50 3f 2a b0 a2 be
       -0.22487828 0.104658924 0.8144871 -0.31775028
0000c0 4a 04 f8 be 3b d6 cd bf 02 35 ac be 9c 6a 3c bf
       -0.48440772 -1.6081003 -0.33634192 -0.73600173
0000d0 84 37 0e be ee 5a 99 bf 2d 4c de bd 52 7d 42 bf
       -0.13888365 -1.1980875 -0.10854373 -0.75972474
0000e0 9b 69 b7 3e 65 a6 93 3d 15 51 82 bf 1a 3c 13 bf
       0.35822758 0.072094716 -1.0180994 -0.5751358
0000f0 d8 be f2 be 4d d3 87 bf 9e 6a a7 3d 31 8c 83 3f
       -0.47411227 -1.0611359 0.081746325 1.0277158
000100 fa 83 c3 bf c0 50 24 3f a6 89 a6 bf ae e5 8b be
       -1.5274651 0.64185715 -1.3010757 -0.2732367
000110 61 19 b6 3d 2c f9 23 bf 99 8a 10 c0 29 96 49 3e
       0.088915594 -0.6405208 -2.2584593 0.19686188
000120 41 59 5b bf c4 52 05 be 5d ff 3d bf f9 95 72 bf
       -0.85683066 -0.13019854 -0.7421778 -0.9476009
000130 81 b5 23 3e 35 b6 16 bf cf bc ea be bc 78 2d bf
       0.15987207 -0.58871776 -0.45847175 -0.6776235
000140 e9 a5 d8 3d de 9c 8f 3e 56 cc fc 3d af 14 1d bf
       0.1057852 0.28049368 0.123436615 -0.61359686
000150 5a 54 71 bf 31 ca f0 3f 28 4b b2 be 2e f6 3c be
       -0.94269335 1.8811704 -0.34822965 -0.18453285
000160 42 35 df bd dc d4 60 be be 9f c5 bf f2 85 a1 be
       -0.1089883 -0.219562 -1.5439374 -0.31547505
000170 af bd e6 be 77 f8 b5 3d 85 04 3d bf 40 e7 5f 3f
       -0.45066592 0.088852815 -0.7383502 0.87462234
000180 4a c4 0a bf 9f 4b 43 be 03 7e 2b 3f 33 5c af be
       -0.54205763 -0.19071816 0.66989154 -0.3425003
000190 12 60 f4 3e 1d 4f 82 bf 19 6e 8b 3f 99 36 80 3f
       0.47729546 -1.0180393 1.0892974 1.0016662
0001a0 85 2f e2 bd eb 98 18 bf c0 3b b7 bf 84 20 f1 3e
       -0.1104422 -0.59608334 -1.4315109 0.4709512
0001b0 f4 63 ed be fa 08 96 be 10 69 9f bf 04 a0 14 be
       -0.4636532 -0.29303724 -1.2453938 -0.14514166
0001c0 51 6b 4b bf 4f 83 88 bf 8f fe 5a bf c1 02 5c bf
       -0.79460627 -1.0665072 -0.85544676 -0.859417
0001d0 1c 5b 76 bf 5a 80 4c 3e b2 ee 7b bf cc 11 7f 3e
       -0.9623277 0.19970837 -0.98411095 0.24909133
0001e0 42 75 eb 3e 79 4c 19 be 5c 77 b0 be 47 ad c3 be
       0.45987898 -0.14970578 -0.34466064 -0.38218138
0001f0 78 a4 ed bf 56 1e 0a 3f 6e 2e 31 3f 69 ef 55 3e
       -1.8565817 0.5395254 0.6921147 0.20892109
000200 29 11 9d bf 99 9d 2c 3e 1f 2b 9e bf 26 63 26 bf
       -1.2270862 0.16856994 -1.235691 -0.6499504
000210 c5 bd 42 bf ae 55 04 3f 9e bc 59 be 40 6a 0c 3e
       -0.76070815 0.51693237 -0.21263358 0.13712406
000220 3d fa b7 be ca be 83 bd 75 9d df be af b5 48 3e
       -0.35933104 -0.064328745 -0.43674818 0.19600557
000230 8b c8 04 be 61 c8 2a bf 57 fb 5c 3f ce ae 5b be
       -0.12967126 -0.66712004 0.86321014 -0.21453401
000240 cc 4e 57 bf 59 53 88 3d 8b 4a 4c 3e fc 25 0e 3f
       -0.8410461 0.06656522 0.19950311 0.5552671
000250 06 a3 48 3f cb c4 aa bf af fd 63 bf fb 02 41 bf
       0.78373754 -1.3341306 -0.89058965 -0.7539517
000260 e5 34 39 bf 6a 51 93 3f f1 ce ad bf ca 5e e3 3d
       -0.72346336 1.1509221 -1.3578779 0.11102064
000270 fb 57 2b bf 7c 69 ff 3d 73 82 3a 3e b4 33 be be
       -0.6693112 0.124712914 0.18213825 -0.3714882
000280 50 f1 dd 3f 0d 2f 66 be 19 fe 86 3f ea 7d bf 3e
       1.7339268 -0.22478886 1.0546294 0.37400752
000290 c5 7e c1 3d e4 49 9b 3e c3 41 56 be 76 4c 00 bf
       0.094480075 0.30329812 -0.20923524 -0.5011667
0002a0 3d 8b a4 bd 2e f3 68 3e cc 9a 17 bf e7 bb 31 bc
       -0.0803437 0.22749016 -0.59220576 -0.010848022
0002b0 4a 0e 8f bf cd 16 4e bf 0e cc a0 3f e5 b3 8f be
       -1.1176236 -0.8050354 1.2562273 -0.28066936
0002c0 14 e6 5c 3f 74 8d 0f bf 6f 37 6f be f2 ca 5f bf
       0.8628857 -0.56075215 -0.2336099 -0.87419045
0002d0 82 73 2d 3f 6b bb 80 bf 08 8f 9a bf 80 a4 d2 bf
       0.67754376 -1.0057195 -1.20749 -1.6456451
0002e0 5d 42 a3 3c 57 7c 6b 3e bb 98 b4 be 7a fa 0c 3f
       0.019929105 0.2299665 -0.35272774 0.55069697
0002f0 2f df a9 be 98 85 61 3f a7 15 49 bf a1 10 9f be
       -0.33178088 0.8809447 -0.78548664 -0.31067374
000300 05 3b a8 3f b8 25 c1 3e 13 f8 26 bf c0 d1 50 3f
       1.3143011 0.3772409 -0.6522228 0.81570053
000310 16 57 b1 3e 3a ec 9b 3e 38 7d 18 c0 65 98 c8 be
       0.34636754 0.30453664 -2.3826427 -0.39178768
000320 2e 9d 80 3e 00 86 88 bf d7 c2 ad 3e a1 a0 3b 3f
       0.2511992 -1.0665894 0.33937714 0.73291975
000330 a0 65 c9 be ef ce 8c be 25 27 f2 bf 64 f0 7f 3f
       -0.39335346 -0.27501628 -1.8918196 0.9997618
000340 6d 7d 70 3d e6 5f b6 bf 7f 3e 62 3e 0f 98 67 bf
       0.058713365 -1.4248016 0.22094153 -0.904664
000350 12 fd 40 bf f6 07 a7 bf 3c c1 15 3e ba f9 a7 3d
       -0.75386155 -1.3049304 0.14624494 0.082019284
000360 48 aa 9c be 0e e5 aa 3e 7b 24 22 be 07 f2 ff 3d
       -0.30598664 0.3337788 -0.15834229 0.12497335
000370 86 4c 83 bf d6 21 7a bf 51 a7 93 be aa ca cc be
       -1.0257728 -0.9770788 -0.2883859 -0.3999837
000380 84 69 41 3f fc 30 5c 3f 2e 33 ae be f9 9c 86 3c
       0.7555163 0.86012244 -0.34023422 0.016432272
000390 41 d4 d7 bf 6e 3e 97 3d a8 e2 39 be 94 99 b5 be
       -1.686165 0.073849544 -0.18152869 -0.35468733
0003a0 36 29 cf be a5 1b 72 bf 56 02 c4 3d cf 3a a8 3e
       -0.4046113 -0.9457343 0.09570758 0.32857367
0003b0 a1 1b 9d 3e df 12 34 3e e2 2d 62 be 43 41 44 bf
       0.30685142 0.17585324 -0.22087815 -0.7666208
0003c0 54 cd c9 bf ab 46 8f 3f cd 92 15 bf db 84 25 bf
       -1.5765786 1.1193441 -0.58427125 -0.64655846
0003d0 c3 32 6a 3f 91 8b 89 bf 10 d0 c1 bd 50 bc ca bf
       0.91483706 -1.0745717 -0.09463513 -1.5838718
0003e0 60 eb 26 c0 d7 0e e2 3e 71 a5 4b be e7 9e ba be
       -2.6081161 0.44151947 -0.1988733 -0.36449358
0003f0 18 d2 7f bf 88 c2 41 bf 99 3b 4b bf cf 25 0d c0
       -0.9992995 -0.75687456 -0.79387814 -2.2054327

output.weight f4 [4, 256]
000000 74 a1 7e bc 6a e5 25 bd 9d 6f db bc f2 dc 72 be
       -0.015541423 -0.04050199 -0.02678662 -0.23717096
000010 84 22 1f bb 69 a2 8c bd b8 1b 91 3c 01 8c 69 bc
       -0.0024282048 -0.06866915 0.017713413 -0.014254571
000020 c2 f1 a2 3d ca 8a 5f 3c 8e 6f 05 bd 76 fe 8b 3d
       0.07956268 0.01364393 -0.03257709 0.06835644
000030 4a f1 64 3d 0d e4 4f 3d 61 06 78 3b 65 5e 14 bf
       0.055894174 0.050754596 0.00378456 -0.57956535
000040 90 5c 01 3d a7 e8 d1 be 36 5b 94 3c 29 4d fe 3a
       0.031582415 -0.40997812 0.018109899 0.0019401658
000050 8b 10 3f 3b 49 2f 85 3c b9 03 e6 bb 74 4d 02 bf
       0.0029154147 0.016257899 -0.0070194867 -0.50899434
000060 b0 ac dd bd db 94 1e 3d c4 75 07 3d f8 5a 97 bc
       -0.10823953 0.03871618 0.033071294 -0.018475994
000070 80 98 1b 3d 44 29 20 be bc a5 a6 bd ee f5 a1 bd
       0.037987232 -0.15640742 -0.0813708 -0.079082355
000080 6e 2a f0 3c 19 0b e0 3a 63 31 30 bb e5 8e 6e 3c
       0.029317107 0.0017093151 -0.0026884906 0.014560436
000090 2f 53 25 3e e6 15 2a 3e b6 53 e8 bd 5c b4 8b 3d
       0.16145013 0.16609916 -0.113440916 0.0682151
0000a0 e4 07 35 be ac b7 8f bd a4 f1 63 3d 9c de 42 bc
       -0.17678791 -0.070174545 0.05565037 -0.0118938945
0000b0 fe ab 0f 3d d6 d8 ed b9 47 64 d8 bd f9 b5 82 3b
       0.035076134 -0.00045365718 -0.105660014 0.003988978
0000c0 02 4f 07 3c 11 1b ed ba 3c 8b ba bb af 90 a6 3a
       0.008258583 -0.0018089731 -0.0056928676 0.0012707914
0000d0 a6 5e 6a 3c a5 80 15 bf 7e a0 8a 3b 59 31 49 be
       0.0143047925 -0.5839942 0.004230558 -0.19647731
0000e0 26 84 68 bd 86 64 8e bc 7a c1 b2 3d 8f cf c2 bb
       -0.05676665 -0.017381918 0.08728309 -0.005945153
0000f0 a8 5a 02 3d 28 aa 66 3c 1a a1 54 3e 7b 35 28 bd
       0.031824738 0.014078654 0.2076458 -0.041066628
000100 ff c0 36 3c 3a 99 9b 3c f0 f1 45 bf fe 71 fc bd
       0.011154412 0.018993963 -0.7732229 -0.1232643
000110 c6 3c 95 bd 47 5e 68 bd 5c 97 b3 ba 1a bc 78 3c
       -0.07286982 -0.056730535 -0.0013701725 0.015181566
000120 61 30 40 bd 91 ac 96 bb da 4f bc 3c 18 04 15 3e
       -0.046921138 -0.0045982082 0.022987295 0.14552343
000130 46 a8 7a bb c3 0f ed 3b 23 5f 9c bb b8 6f 83 3d
       -0.0038247271 0.007234545 -0.0047720834 0.06417793
000140 07 70 09 be e5 c6 9d 3d f7 69 9c 3d e5 d9 ee 3d
       -0.13421641 0.07703952 0.07637399 0.11662654
000150 0d d4 80 bc 98 0a a1 bb d7 1c 05 bd 48 98 93 bd
       -0.015726114 -0.004914593 -0.032498207 -0.0720678
000160 53 c0 06 bd 3f a8 6f bb 5c 6a aa 3c 67 a4 6a 39
       -0.03289826 -0.0036568788 0.02080267 0.00022377224
000170 de dc b2 3c 84 99 8b bb 8e f1 5e 3d 9c 9d b2 bd
       0.021833833 -0.004260244 0.054429583 -0.08721468
000180 6a 91 d3 bb 53 cf 96 3c 94 d7 4d 3d 07 f5 cf 3c
       -0.0064565437 0.018409407 0.05025442 0.025385393
000190 97 14 c0 3d e0 c5 9e 3d b9 ad 4f bc 83 90 32 3d
       0.09378927 0.077525854 -0.012675696 0.04359485
0001a0 39 0f 74 bd 57 2d 50 bc 96 73 06 3c cb 26 f9 3a
       -0.05958483 -0.012706122 0.008206269 0.0019008754
0001b0 c8 cd 27 3d 34 88 b1 bb 95 6b be be dc fe cc 3d
       0.040967733 -0.005417848 -0.37191454 0.10009548
0001c0 c9 88 cc bb a1 57 0a 3c f3 aa 56 be 22 d3 f2 3b
       -0.006241892 0.008443744 -0.2096365 0.007410423
0001d0 aa fb 57 be fa 99 3a bc ee ab 50 bc 28 97 4d 3b
       -0.21092096 -0.01138925 -0.012736304 0.0031370614
0001e0 66 ca 2b 3e e4 cb 97 3c 43 d1 ce bd 28 67 0d 3a
       0.16776428 0.01852984 -0.10098507 0.00053940946
0001f0 28 d2 eb bc a1 01 c3 3c d7 7b 3a be b8 9e fe 3d
       -0.028786734 0.023804488 -0.18211304 0.12432617
000200 ee 2b d0 bb c3 8f 5b bc 1e 1a 3d bb e4 f8 eb 3b
       -0.006352893 -0.013400975 -0.0028854678 0.007201301
000210 fc 61 1d 3d 1e 70 7b 3d 60 a8 dd 3d 17 c0 57 bd
       0.038423523 0.06138622 0.108231306 -0.052673426
000220 93 c4 b8 3c d5 f3 91 3c 07 25 9d bd 53 07 26 bb
       0.022554671 0.017816463 -0.07673078 -0.0025333955
000230 51 6a 82 3c f4 fe f4 b9 1b b9 2d bc f1 9a 75 bc
       0.015919836 -0.00046729262 -0.010603215 -0.014990554
000240 11 e9 c1 bb 68 6d 12 3c b3 ab a7 3b a9 13 60 3d
       -0.0059176763 0.008937217 0.0051169037 0.05470625
000250 e4 83 66 3d 57 27 8f bb d8 af 83 bd 3b 87 4b bc
       0.056278124 -0.0043687033 -0.06430024 -0.012422378
000260 96 0e 14 3d cc 13 4d bb 9f 77 aa bc 39 eb ac 3d
       0.036146723 -0.0031292317 -0.020808993 0.08443303
000270 92 c7 16 bc 68 3a da 3b a3 5c ab 3d e6 3e 75 bd
       -0.009202855 0.0066597946 0.083672784 -0.059874438
000280 a5 7d 89 ba 89 56 92 3e 3d 72 03 3d 75 bc 64 bd
       -0.0010489715 0.28581646 0.032091368 -0.05584379
000290 af 28 ad 3b 44 13 10 bd 4c 30 c9 3d 32 7b 91 3c
       0.005284391 -0.035174623 0.09823665 0.01775894
0002a0 2b fb 58 bd 40 8d 68 3d 10 5f 0c 3c 68 87 eb 3e
       -0.052973907 0.05677533 0.008567587 0.46001744
0002b0 37 a7 21 3e 57 16 71 3c 64 2a b5 b8 63 dd af c0
       0.15786444 0.014714799 -8.6386484e-05 -5.4957747
0002c0 e6 42 00 bd 59 14 2d 3d 33 f4 9c bd 2e 2b af be
       -0.0313138 0.042255733 -0.07663765 -0.3421263
0002d0 32 02 34 3c c6 60 55 3f e1 14 f8 bc 72 95 0c bc
       0.0109868515 0.8335079 -0.030283393 -0.008580552
0002e0 49 46 6e 3d a8 17 9f 3a 71 7f a2 3b ac 7d 16 be
       0.058172498 0.0012137787 0.00495904 -0.14696378
0002f0 26 8b 2c 3e eb 37 9f 3d 01 1b 28 bd 87 c9 b4 b9
       0.16849956 0.077743374 -0.041041378 -0.00034482425
000300 24 3d 03 ba b6 b2 b7 bd 92 2a 30 3b c2 61 39 bd
       -0.0005006364 -0.08969633 0.0026880843 -0.045259245
000310 cd 2e 18 bd 7d 63 78 3b ad 9b e1 bc 0d 39 85 3c
       -0.037154008 0.0037901097 -0.027540052 0.016262555
000320 09 df 7f bd 8d 2d 20 3b 5f 14 26 3b 1a 00 01 bc
       -0.062468562 0.0024441213 0.0025341732 -0.007873559
000330 ff 2c 1b bc 07 33 ed be 5d e5 d3 bb 0f c7 4a 3b
       -0.009471177 -0.46327993 -0.006466551 0.0030941402
000340 a2 a8 cd bc 02 01 d2 bb cf d4 3a 3d 14 0a 65 3c
       -0.025104824 -0.0064088115 0.045613106 0.013979454
000350 1a 40 17 3c 51 cd 5d 3d 1d f3 81 3c 73 ef 2a 3c
       0.009231592 0.054150883 0.015862996 0.010433066
000360 c7 58 8b bd ff 6c e0 3b e3 c8 10 be 54 f4 47 3d
       -0.06804042 0.006848931 -0.14139132 0.048816994
000370 70 62 a3 3d 48 96 3a 3d 48 dc e1 3b fb 4b a9 bf
       0.0797776 0.045553476 0.0068927146 -1.3226312
000380 25 64 d5 3c a6 8c 9f bc 8d a6 94 be 3a 78 88 bc
       0.02604873 -0.019476246 -0.29033318 -0.016658891
000390 20 a8 77 3e fb 32 56 bb bd bb 1f bc ec b5 a8 3c
       0.24185228 -0.0032684195 -0.00974935 0.02059456
0003a0 69 72 2c bc c0 4d 0f be be 71 f3 38 fd fa 78 3e
       -0.010525324 -0.13994503 0.00011608329 0.24314494
0003b0 56 93 59 3c 95 6e 01 3c 5f 7b c6 bc 8b 60 57 bd
       0.0132797565 0.0078999 -0.02422875 -0.052582305
0003c0 bd 28 d5 b9 f7 94 2c be ab d8 a6 3e ba 5f 01 bf
       -0.00040656878 -0.168537 0.3258718 -0.5053669
0003d0 bd f6 6d bb 85 70 2d 3e 22 29 8a 3c 89 f7 24 3e
       -0.0036310398 0.16937454 0.016865317 0.16110052
0003e0 44 51 86 3f ff 08 03 bd 6f 73 32 3d 32 97 93 3e
       1.049355 -0.031991 0.043567117 0.2882629
0003f0 78 2c 94 3c 3d 1f 0d bb 92 2b 87 be 69 2b 95 3e
       0.01808761 -0.0021533512 -0.2640043 0.29134682

output.bias f4 [4]
000000 e2 3d 56 bb 70 c8 66 bd 7d 1b d8 bc bf c4 07 3d
       -0.0032690694 -0.056343496 -0.026380295 0.033146616
